7767517
911 1099
Input                    img                      0 1 input
Split                    splitncnn_input0         1 4 input img_splitncnn_0 img_splitncnn_1 img_splitncnn_2 img_splitncnn_3
Convolution              Conv_0                   1 1 img_splitncnn_3 relu_0.tmp_0 0=64 1=3 3=2 4=-233 5=1 6=1728 9=1
Split                    splitncnn_0              1 2 relu_0.tmp_0 relu_0.tmp_0_splitncnn_0 relu_0.tmp_0_splitncnn_1
Convolution              Conv_1                   1 1 relu_0.tmp_0_splitncnn_1 relu_1.tmp_0 0=64 1=3 3=2 4=-233 5=1 6=36864 9=1
Split                    splitncnn_1              1 2 relu_1.tmp_0 relu_1.tmp_0_splitncnn_0 relu_1.tmp_0_splitncnn_1
Convolution              Conv_2                   1 1 relu_1.tmp_0_splitncnn_1 relu_2.tmp_0 0=64 1=1 4=-233 5=1 6=4096 9=1
Convolution              Conv_3                   1 1 relu_2.tmp_0 relu_3.tmp_0 0=64 1=3 4=-233 5=1 6=36864 9=1
Convolution              Conv_4                   1 1 relu_3.tmp_0 conv2d_332.tmp_0 0=256 1=1 4=-233 5=1 6=16384
Convolution              Conv_5                   1 1 relu_1.tmp_0_splitncnn_0 conv2d_333.tmp_0 0=256 1=1 4=-233 5=1 6=16384
BinaryOp                 Add_0                    2 1 conv2d_332.tmp_0 conv2d_333.tmp_0 elementwise_add_0
ReLU                     Relu_4                   1 1 elementwise_add_0 relu_4.tmp_0
Split                    splitncnn_2              1 2 relu_4.tmp_0 relu_4.tmp_0_splitncnn_0 relu_4.tmp_0_splitncnn_1
Convolution              Conv_6                   1 1 relu_4.tmp_0_splitncnn_1 relu_5.tmp_0 0=64 1=1 4=-233 5=1 6=16384 9=1
Convolution              Conv_7                   1 1 relu_5.tmp_0 relu_6.tmp_0 0=64 1=3 4=-233 5=1 6=36864 9=1
Convolution              Conv_8                   1 1 relu_6.tmp_0 conv2d_336.tmp_0 0=256 1=1 4=-233 5=1 6=16384
BinaryOp                 Add_1                    2 1 conv2d_336.tmp_0 relu_4.tmp_0_splitncnn_0 elementwise_add_1
ReLU                     Relu_7                   1 1 elementwise_add_1 relu_7.tmp_0
Split                    splitncnn_3              1 2 relu_7.tmp_0 relu_7.tmp_0_splitncnn_0 relu_7.tmp_0_splitncnn_1
Convolution              Conv_9                   1 1 relu_7.tmp_0_splitncnn_1 relu_8.tmp_0 0=64 1=1 4=-233 5=1 6=16384 9=1
Convolution              Conv_10                  1 1 relu_8.tmp_0 relu_9.tmp_0 0=64 1=3 4=-233 5=1 6=36864 9=1
Convolution              Conv_11                  1 1 relu_9.tmp_0 conv2d_339.tmp_0 0=256 1=1 4=-233 5=1 6=16384
BinaryOp                 Add_2                    2 1 conv2d_339.tmp_0 relu_7.tmp_0_splitncnn_0 elementwise_add_2
ReLU                     Relu_10                  1 1 elementwise_add_2 relu_10.tmp_0
Split                    splitncnn_4              1 2 relu_10.tmp_0 relu_10.tmp_0_splitncnn_0 relu_10.tmp_0_splitncnn_1
Convolution              Conv_12                  1 1 relu_10.tmp_0_splitncnn_1 relu_11.tmp_0 0=64 1=1 4=-233 5=1 6=16384 9=1
Convolution              Conv_13                  1 1 relu_11.tmp_0 relu_12.tmp_0 0=64 1=3 4=-233 5=1 6=36864 9=1
Convolution              Conv_14                  1 1 relu_12.tmp_0 conv2d_342.tmp_0 0=256 1=1 4=-233 5=1 6=16384
BinaryOp                 Add_3                    2 1 conv2d_342.tmp_0 relu_10.tmp_0_splitncnn_0 elementwise_add_3
ReLU                     Relu_13                  1 1 elementwise_add_3 relu_13.tmp_0
Split                    splitncnn_5              1 2 relu_13.tmp_0 relu_13.tmp_0_splitncnn_0 relu_13.tmp_0_splitncnn_1
Convolution              Conv_15                  1 1 relu_13.tmp_0_splitncnn_1 relu_14.tmp_0 0=18 1=3 4=-233 5=1 6=41472 9=1
Split                    splitncnn_6              1 2 relu_14.tmp_0 relu_14.tmp_0_splitncnn_0 relu_14.tmp_0_splitncnn_1
Convolution              Conv_16                  1 1 relu_13.tmp_0_splitncnn_0 relu_15.tmp_0 0=36 1=3 3=2 4=-233 5=1 6=82944 9=1
Split                    splitncnn_7              1 2 relu_15.tmp_0 relu_15.tmp_0_splitncnn_0 relu_15.tmp_0_splitncnn_1
Convolution              Conv_17                  1 1 relu_14.tmp_0_splitncnn_1 relu_16.tmp_0 0=18 1=3 4=-233 5=1 6=2916 9=1
Convolution              Conv_18                  1 1 relu_16.tmp_0 conv2d_346.tmp_0 0=18 1=3 4=-233 5=1 6=2916
BinaryOp                 Add_4                    2 1 conv2d_346.tmp_0 relu_14.tmp_0_splitncnn_0 elementwise_add_4
ReLU                     Relu_17                  1 1 elementwise_add_4 relu_17.tmp_0
Split                    splitncnn_8              1 2 relu_17.tmp_0 relu_17.tmp_0_splitncnn_0 relu_17.tmp_0_splitncnn_1
Convolution              Conv_19                  1 1 relu_17.tmp_0_splitncnn_1 relu_18.tmp_0 0=18 1=3 4=-233 5=1 6=2916 9=1
Convolution              Conv_20                  1 1 relu_18.tmp_0 conv2d_348.tmp_0 0=18 1=3 4=-233 5=1 6=2916
BinaryOp                 Add_5                    2 1 conv2d_348.tmp_0 relu_17.tmp_0_splitncnn_0 elementwise_add_5
ReLU                     Relu_19                  1 1 elementwise_add_5 relu_19.tmp_0
Split                    splitncnn_9              1 2 relu_19.tmp_0 relu_19.tmp_0_splitncnn_0 relu_19.tmp_0_splitncnn_1
Convolution              Conv_21                  1 1 relu_19.tmp_0_splitncnn_1 relu_20.tmp_0 0=18 1=3 4=-233 5=1 6=2916 9=1
Convolution              Conv_22                  1 1 relu_20.tmp_0 conv2d_350.tmp_0 0=18 1=3 4=-233 5=1 6=2916
BinaryOp                 Add_6                    2 1 conv2d_350.tmp_0 relu_19.tmp_0_splitncnn_0 elementwise_add_6
ReLU                     Relu_21                  1 1 elementwise_add_6 relu_21.tmp_0
Split                    splitncnn_10             1 2 relu_21.tmp_0 relu_21.tmp_0_splitncnn_0 relu_21.tmp_0_splitncnn_1
Convolution              Conv_23                  1 1 relu_21.tmp_0_splitncnn_1 relu_22.tmp_0 0=18 1=3 4=-233 5=1 6=2916 9=1
Convolution              Conv_24                  1 1 relu_22.tmp_0 conv2d_352.tmp_0 0=18 1=3 4=-233 5=1 6=2916
BinaryOp                 Add_7                    2 1 conv2d_352.tmp_0 relu_21.tmp_0_splitncnn_0 elementwise_add_7
ReLU                     Relu_23                  1 1 elementwise_add_7 relu_23.tmp_0
Split                    splitncnn_11             1 2 relu_23.tmp_0 relu_23.tmp_0_splitncnn_0 relu_23.tmp_0_splitncnn_1
Convolution              Conv_25                  1 1 relu_15.tmp_0_splitncnn_1 relu_24.tmp_0 0=36 1=3 4=-233 5=1 6=11664 9=1
Convolution              Conv_26                  1 1 relu_24.tmp_0 conv2d_354.tmp_0 0=36 1=3 4=-233 5=1 6=11664
BinaryOp                 Add_8                    2 1 conv2d_354.tmp_0 relu_15.tmp_0_splitncnn_0 elementwise_add_8
ReLU                     Relu_25                  1 1 elementwise_add_8 relu_25.tmp_0
Split                    splitncnn_12             1 2 relu_25.tmp_0 relu_25.tmp_0_splitncnn_0 relu_25.tmp_0_splitncnn_1
Convolution              Conv_27                  1 1 relu_25.tmp_0_splitncnn_1 relu_26.tmp_0 0=36 1=3 4=-233 5=1 6=11664 9=1
Convolution              Conv_28                  1 1 relu_26.tmp_0 conv2d_356.tmp_0 0=36 1=3 4=-233 5=1 6=11664
BinaryOp                 Add_9                    2 1 conv2d_356.tmp_0 relu_25.tmp_0_splitncnn_0 elementwise_add_9
ReLU                     Relu_27                  1 1 elementwise_add_9 relu_27.tmp_0
Split                    splitncnn_13             1 2 relu_27.tmp_0 relu_27.tmp_0_splitncnn_0 relu_27.tmp_0_splitncnn_1
Convolution              Conv_29                  1 1 relu_27.tmp_0_splitncnn_1 relu_28.tmp_0 0=36 1=3 4=-233 5=1 6=11664 9=1
Convolution              Conv_30                  1 1 relu_28.tmp_0 conv2d_358.tmp_0 0=36 1=3 4=-233 5=1 6=11664
BinaryOp                 Add_10                   2 1 conv2d_358.tmp_0 relu_27.tmp_0_splitncnn_0 elementwise_add_10
ReLU                     Relu_29                  1 1 elementwise_add_10 relu_29.tmp_0
Split                    splitncnn_14             1 2 relu_29.tmp_0 relu_29.tmp_0_splitncnn_0 relu_29.tmp_0_splitncnn_1
Convolution              Conv_31                  1 1 relu_29.tmp_0_splitncnn_1 relu_30.tmp_0 0=36 1=3 4=-233 5=1 6=11664 9=1
Convolution              Conv_32                  1 1 relu_30.tmp_0 conv2d_360.tmp_0 0=36 1=3 4=-233 5=1 6=11664
BinaryOp                 Add_11                   2 1 conv2d_360.tmp_0 relu_29.tmp_0_splitncnn_0 elementwise_add_11
ReLU                     Relu_31                  1 1 elementwise_add_11 relu_31.tmp_0
Split                    splitncnn_15             1 2 relu_31.tmp_0 relu_31.tmp_0_splitncnn_0 relu_31.tmp_0_splitncnn_1
Convolution              Conv_33                  1 1 relu_31.tmp_0_splitncnn_1 conv2d_361.tmp_0 0=18 1=1 4=-233 5=1 6=648
Interp                   Resize_0                 1 1 conv2d_361.tmp_0 bilinear_interp_v2_0.tmp_0 0=2 3=128 4=128
BinaryOp                 Add_12                   2 1 relu_23.tmp_0_splitncnn_1 bilinear_interp_v2_0.tmp_0 tmp_0
ReLU                     Relu_32                  1 1 tmp_0 relu_32.tmp_0
Split                    splitncnn_16             1 2 relu_32.tmp_0 relu_32.tmp_0_splitncnn_0 relu_32.tmp_0_splitncnn_1
Convolution              Conv_34                  1 1 relu_23.tmp_0_splitncnn_0 conv2d_362.tmp_0 0=36 1=3 3=2 4=-233 5=1 6=5832
BinaryOp                 Add_13                   2 1 relu_31.tmp_0_splitncnn_0 conv2d_362.tmp_0 tmp_1
ReLU                     Relu_33                  1 1 tmp_1 relu_33.tmp_0
Split                    splitncnn_17             1 3 relu_33.tmp_0 relu_33.tmp_0_splitncnn_0 relu_33.tmp_0_splitncnn_1 relu_33.tmp_0_splitncnn_2
Convolution              Conv_35                  1 1 relu_33.tmp_0_splitncnn_2 relu_34.tmp_0 0=72 1=3 3=2 4=-233 5=1 6=23328 9=1
Split                    splitncnn_18             1 2 relu_34.tmp_0 relu_34.tmp_0_splitncnn_0 relu_34.tmp_0_splitncnn_1
Convolution              Conv_36                  1 1 relu_32.tmp_0_splitncnn_1 relu_35.tmp_0 0=18 1=3 4=-233 5=1 6=2916 9=1
Convolution              Conv_37                  1 1 relu_35.tmp_0 conv2d_365.tmp_0 0=18 1=3 4=-233 5=1 6=2916
BinaryOp                 Add_14                   2 1 conv2d_365.tmp_0 relu_32.tmp_0_splitncnn_0 elementwise_add_12
ReLU                     Relu_36                  1 1 elementwise_add_12 relu_36.tmp_0
Split                    splitncnn_19             1 2 relu_36.tmp_0 relu_36.tmp_0_splitncnn_0 relu_36.tmp_0_splitncnn_1
Convolution              Conv_38                  1 1 relu_36.tmp_0_splitncnn_1 relu_37.tmp_0 0=18 1=3 4=-233 5=1 6=2916 9=1
Convolution              Conv_39                  1 1 relu_37.tmp_0 conv2d_367.tmp_0 0=18 1=3 4=-233 5=1 6=2916
BinaryOp                 Add_15                   2 1 conv2d_367.tmp_0 relu_36.tmp_0_splitncnn_0 elementwise_add_13
ReLU                     Relu_38                  1 1 elementwise_add_13 relu_38.tmp_0
Split                    splitncnn_20             1 2 relu_38.tmp_0 relu_38.tmp_0_splitncnn_0 relu_38.tmp_0_splitncnn_1
Convolution              Conv_40                  1 1 relu_38.tmp_0_splitncnn_1 relu_39.tmp_0 0=18 1=3 4=-233 5=1 6=2916 9=1
Convolution              Conv_41                  1 1 relu_39.tmp_0 conv2d_369.tmp_0 0=18 1=3 4=-233 5=1 6=2916
BinaryOp                 Add_16                   2 1 conv2d_369.tmp_0 relu_38.tmp_0_splitncnn_0 elementwise_add_14
ReLU                     Relu_40                  1 1 elementwise_add_14 relu_40.tmp_0
Split                    splitncnn_21             1 2 relu_40.tmp_0 relu_40.tmp_0_splitncnn_0 relu_40.tmp_0_splitncnn_1
Convolution              Conv_42                  1 1 relu_40.tmp_0_splitncnn_1 relu_41.tmp_0 0=18 1=3 4=-233 5=1 6=2916 9=1
Convolution              Conv_43                  1 1 relu_41.tmp_0 conv2d_371.tmp_0 0=18 1=3 4=-233 5=1 6=2916
BinaryOp                 Add_17                   2 1 conv2d_371.tmp_0 relu_40.tmp_0_splitncnn_0 elementwise_add_15
ReLU                     Relu_42                  1 1 elementwise_add_15 relu_42.tmp_0
Split                    splitncnn_22             1 3 relu_42.tmp_0 relu_42.tmp_0_splitncnn_0 relu_42.tmp_0_splitncnn_1 relu_42.tmp_0_splitncnn_2
Convolution              Conv_44                  1 1 relu_33.tmp_0_splitncnn_1 relu_43.tmp_0 0=36 1=3 4=-233 5=1 6=11664 9=1
Convolution              Conv_45                  1 1 relu_43.tmp_0 conv2d_373.tmp_0 0=36 1=3 4=-233 5=1 6=11664
BinaryOp                 Add_18                   2 1 conv2d_373.tmp_0 relu_33.tmp_0_splitncnn_0 elementwise_add_16
ReLU                     Relu_44                  1 1 elementwise_add_16 relu_44.tmp_0
Split                    splitncnn_23             1 2 relu_44.tmp_0 relu_44.tmp_0_splitncnn_0 relu_44.tmp_0_splitncnn_1
Convolution              Conv_46                  1 1 relu_44.tmp_0_splitncnn_1 relu_45.tmp_0 0=36 1=3 4=-233 5=1 6=11664 9=1
Convolution              Conv_47                  1 1 relu_45.tmp_0 conv2d_375.tmp_0 0=36 1=3 4=-233 5=1 6=11664
BinaryOp                 Add_19                   2 1 conv2d_375.tmp_0 relu_44.tmp_0_splitncnn_0 elementwise_add_17
ReLU                     Relu_46                  1 1 elementwise_add_17 relu_46.tmp_0
Split                    splitncnn_24             1 2 relu_46.tmp_0 relu_46.tmp_0_splitncnn_0 relu_46.tmp_0_splitncnn_1
Convolution              Conv_48                  1 1 relu_46.tmp_0_splitncnn_1 relu_47.tmp_0 0=36 1=3 4=-233 5=1 6=11664 9=1
Convolution              Conv_49                  1 1 relu_47.tmp_0 conv2d_377.tmp_0 0=36 1=3 4=-233 5=1 6=11664
BinaryOp                 Add_20                   2 1 conv2d_377.tmp_0 relu_46.tmp_0_splitncnn_0 elementwise_add_18
ReLU                     Relu_48                  1 1 elementwise_add_18 relu_48.tmp_0
Split                    splitncnn_25             1 2 relu_48.tmp_0 relu_48.tmp_0_splitncnn_0 relu_48.tmp_0_splitncnn_1
Convolution              Conv_50                  1 1 relu_48.tmp_0_splitncnn_1 relu_49.tmp_0 0=36 1=3 4=-233 5=1 6=11664 9=1
Convolution              Conv_51                  1 1 relu_49.tmp_0 conv2d_379.tmp_0 0=36 1=3 4=-233 5=1 6=11664
BinaryOp                 Add_21                   2 1 conv2d_379.tmp_0 relu_48.tmp_0_splitncnn_0 elementwise_add_19
ReLU                     Relu_50                  1 1 elementwise_add_19 relu_50.tmp_0
Split                    splitncnn_26             1 3 relu_50.tmp_0 relu_50.tmp_0_splitncnn_0 relu_50.tmp_0_splitncnn_1 relu_50.tmp_0_splitncnn_2
Convolution              Conv_52                  1 1 relu_34.tmp_0_splitncnn_1 relu_51.tmp_0 0=72 1=3 4=-233 5=1 6=46656 9=1
Convolution              Conv_53                  1 1 relu_51.tmp_0 conv2d_381.tmp_0 0=72 1=3 4=-233 5=1 6=46656
BinaryOp                 Add_22                   2 1 conv2d_381.tmp_0 relu_34.tmp_0_splitncnn_0 elementwise_add_20
ReLU                     Relu_52                  1 1 elementwise_add_20 relu_52.tmp_0
Split                    splitncnn_27             1 2 relu_52.tmp_0 relu_52.tmp_0_splitncnn_0 relu_52.tmp_0_splitncnn_1
Convolution              Conv_54                  1 1 relu_52.tmp_0_splitncnn_1 relu_53.tmp_0 0=72 1=3 4=-233 5=1 6=46656 9=1
Convolution              Conv_55                  1 1 relu_53.tmp_0 conv2d_383.tmp_0 0=72 1=3 4=-233 5=1 6=46656
BinaryOp                 Add_23                   2 1 conv2d_383.tmp_0 relu_52.tmp_0_splitncnn_0 elementwise_add_21
ReLU                     Relu_54                  1 1 elementwise_add_21 relu_54.tmp_0
Split                    splitncnn_28             1 2 relu_54.tmp_0 relu_54.tmp_0_splitncnn_0 relu_54.tmp_0_splitncnn_1
Convolution              Conv_56                  1 1 relu_54.tmp_0_splitncnn_1 relu_55.tmp_0 0=72 1=3 4=-233 5=1 6=46656 9=1
Convolution              Conv_57                  1 1 relu_55.tmp_0 conv2d_385.tmp_0 0=72 1=3 4=-233 5=1 6=46656
BinaryOp                 Add_24                   2 1 conv2d_385.tmp_0 relu_54.tmp_0_splitncnn_0 elementwise_add_22
ReLU                     Relu_56                  1 1 elementwise_add_22 relu_56.tmp_0
Split                    splitncnn_29             1 2 relu_56.tmp_0 relu_56.tmp_0_splitncnn_0 relu_56.tmp_0_splitncnn_1
Convolution              Conv_58                  1 1 relu_56.tmp_0_splitncnn_1 relu_57.tmp_0 0=72 1=3 4=-233 5=1 6=46656 9=1
Convolution              Conv_59                  1 1 relu_57.tmp_0 conv2d_387.tmp_0 0=72 1=3 4=-233 5=1 6=46656
BinaryOp                 Add_25                   2 1 conv2d_387.tmp_0 relu_56.tmp_0_splitncnn_0 elementwise_add_23
ReLU                     Relu_58                  1 1 elementwise_add_23 relu_58.tmp_0
Split                    splitncnn_30             1 3 relu_58.tmp_0 relu_58.tmp_0_splitncnn_0 relu_58.tmp_0_splitncnn_1 relu_58.tmp_0_splitncnn_2
Convolution              Conv_60                  1 1 relu_50.tmp_0_splitncnn_2 conv2d_388.tmp_0 0=18 1=1 4=-233 5=1 6=648
Interp                   Resize_1                 1 1 conv2d_388.tmp_0 bilinear_interp_v2_1.tmp_0 0=2 3=128 4=128
BinaryOp                 Add_26                   2 1 relu_42.tmp_0_splitncnn_2 bilinear_interp_v2_1.tmp_0 tmp_2
Convolution              Conv_61                  1 1 relu_58.tmp_0_splitncnn_2 conv2d_389.tmp_0 0=18 1=1 4=-233 5=1 6=1296
Interp                   Resize_2                 1 1 conv2d_389.tmp_0 bilinear_interp_v2_2.tmp_0 0=2 3=128 4=128
BinaryOp                 Add_27                   2 1 tmp_2 bilinear_interp_v2_2.tmp_0 tmp_3
ReLU                     Relu_59                  1 1 tmp_3 relu_59.tmp_0
Split                    splitncnn_31             1 2 relu_59.tmp_0 relu_59.tmp_0_splitncnn_0 relu_59.tmp_0_splitncnn_1
Convolution              Conv_62                  1 1 relu_42.tmp_0_splitncnn_1 conv2d_390.tmp_0 0=36 1=3 3=2 4=-233 5=1 6=5832
BinaryOp                 Add_28                   2 1 relu_50.tmp_0_splitncnn_1 conv2d_390.tmp_0 tmp_4
Convolution              Conv_63                  1 1 relu_58.tmp_0_splitncnn_1 conv2d_391.tmp_0 0=36 1=1 4=-233 5=1 6=2592
Interp                   Resize_3                 1 1 conv2d_391.tmp_0 bilinear_interp_v2_3.tmp_0 0=2 3=64 4=64
BinaryOp                 Add_29                   2 1 tmp_4 bilinear_interp_v2_3.tmp_0 tmp_5
ReLU                     Relu_60                  1 1 tmp_5 relu_60.tmp_0
Split                    splitncnn_32             1 2 relu_60.tmp_0 relu_60.tmp_0_splitncnn_0 relu_60.tmp_0_splitncnn_1
Convolution              Conv_64                  1 1 relu_42.tmp_0_splitncnn_0 relu_61.tmp_0 0=18 1=3 3=2 4=-233 5=1 6=2916 9=1
Convolution              Conv_65                  1 1 relu_61.tmp_0 conv2d_393.tmp_0 0=72 1=3 3=2 4=-233 5=1 6=11664
BinaryOp                 Add_30                   2 1 relu_58.tmp_0_splitncnn_0 conv2d_393.tmp_0 tmp_6
Convolution              Conv_66                  1 1 relu_50.tmp_0_splitncnn_0 conv2d_394.tmp_0 0=72 1=3 3=2 4=-233 5=1 6=23328
BinaryOp                 Add_31                   2 1 tmp_6 conv2d_394.tmp_0 tmp_7
ReLU                     Relu_62                  1 1 tmp_7 relu_62.tmp_0
Split                    splitncnn_33             1 2 relu_62.tmp_0 relu_62.tmp_0_splitncnn_0 relu_62.tmp_0_splitncnn_1
Convolution              Conv_67                  1 1 relu_59.tmp_0_splitncnn_1 relu_63.tmp_0 0=18 1=3 4=-233 5=1 6=2916 9=1
Convolution              Conv_68                  1 1 relu_63.tmp_0 conv2d_396.tmp_0 0=18 1=3 4=-233 5=1 6=2916
BinaryOp                 Add_32                   2 1 conv2d_396.tmp_0 relu_59.tmp_0_splitncnn_0 elementwise_add_24
ReLU                     Relu_64                  1 1 elementwise_add_24 relu_64.tmp_0
Split                    splitncnn_34             1 2 relu_64.tmp_0 relu_64.tmp_0_splitncnn_0 relu_64.tmp_0_splitncnn_1
Convolution              Conv_69                  1 1 relu_64.tmp_0_splitncnn_1 relu_65.tmp_0 0=18 1=3 4=-233 5=1 6=2916 9=1
Convolution              Conv_70                  1 1 relu_65.tmp_0 conv2d_398.tmp_0 0=18 1=3 4=-233 5=1 6=2916
BinaryOp                 Add_33                   2 1 conv2d_398.tmp_0 relu_64.tmp_0_splitncnn_0 elementwise_add_25
ReLU                     Relu_66                  1 1 elementwise_add_25 relu_66.tmp_0
Split                    splitncnn_35             1 2 relu_66.tmp_0 relu_66.tmp_0_splitncnn_0 relu_66.tmp_0_splitncnn_1
Convolution              Conv_71                  1 1 relu_66.tmp_0_splitncnn_1 relu_67.tmp_0 0=18 1=3 4=-233 5=1 6=2916 9=1
Convolution              Conv_72                  1 1 relu_67.tmp_0 conv2d_400.tmp_0 0=18 1=3 4=-233 5=1 6=2916
BinaryOp                 Add_34                   2 1 conv2d_400.tmp_0 relu_66.tmp_0_splitncnn_0 elementwise_add_26
ReLU                     Relu_68                  1 1 elementwise_add_26 relu_68.tmp_0
Split                    splitncnn_36             1 2 relu_68.tmp_0 relu_68.tmp_0_splitncnn_0 relu_68.tmp_0_splitncnn_1
Convolution              Conv_73                  1 1 relu_68.tmp_0_splitncnn_1 relu_69.tmp_0 0=18 1=3 4=-233 5=1 6=2916 9=1
Convolution              Conv_74                  1 1 relu_69.tmp_0 conv2d_402.tmp_0 0=18 1=3 4=-233 5=1 6=2916
BinaryOp                 Add_35                   2 1 conv2d_402.tmp_0 relu_68.tmp_0_splitncnn_0 elementwise_add_27
ReLU                     Relu_70                  1 1 elementwise_add_27 relu_70.tmp_0
Split                    splitncnn_37             1 3 relu_70.tmp_0 relu_70.tmp_0_splitncnn_0 relu_70.tmp_0_splitncnn_1 relu_70.tmp_0_splitncnn_2
Convolution              Conv_75                  1 1 relu_60.tmp_0_splitncnn_1 relu_71.tmp_0 0=36 1=3 4=-233 5=1 6=11664 9=1
Convolution              Conv_76                  1 1 relu_71.tmp_0 conv2d_404.tmp_0 0=36 1=3 4=-233 5=1 6=11664
BinaryOp                 Add_36                   2 1 conv2d_404.tmp_0 relu_60.tmp_0_splitncnn_0 elementwise_add_28
ReLU                     Relu_72                  1 1 elementwise_add_28 relu_72.tmp_0
Split                    splitncnn_38             1 2 relu_72.tmp_0 relu_72.tmp_0_splitncnn_0 relu_72.tmp_0_splitncnn_1
Convolution              Conv_77                  1 1 relu_72.tmp_0_splitncnn_1 relu_73.tmp_0 0=36 1=3 4=-233 5=1 6=11664 9=1
Convolution              Conv_78                  1 1 relu_73.tmp_0 conv2d_406.tmp_0 0=36 1=3 4=-233 5=1 6=11664
BinaryOp                 Add_37                   2 1 conv2d_406.tmp_0 relu_72.tmp_0_splitncnn_0 elementwise_add_29
ReLU                     Relu_74                  1 1 elementwise_add_29 relu_74.tmp_0
Split                    splitncnn_39             1 2 relu_74.tmp_0 relu_74.tmp_0_splitncnn_0 relu_74.tmp_0_splitncnn_1
Convolution              Conv_79                  1 1 relu_74.tmp_0_splitncnn_1 relu_75.tmp_0 0=36 1=3 4=-233 5=1 6=11664 9=1
Convolution              Conv_80                  1 1 relu_75.tmp_0 conv2d_408.tmp_0 0=36 1=3 4=-233 5=1 6=11664
BinaryOp                 Add_38                   2 1 conv2d_408.tmp_0 relu_74.tmp_0_splitncnn_0 elementwise_add_30
ReLU                     Relu_76                  1 1 elementwise_add_30 relu_76.tmp_0
Split                    splitncnn_40             1 2 relu_76.tmp_0 relu_76.tmp_0_splitncnn_0 relu_76.tmp_0_splitncnn_1
Convolution              Conv_81                  1 1 relu_76.tmp_0_splitncnn_1 relu_77.tmp_0 0=36 1=3 4=-233 5=1 6=11664 9=1
Convolution              Conv_82                  1 1 relu_77.tmp_0 conv2d_410.tmp_0 0=36 1=3 4=-233 5=1 6=11664
BinaryOp                 Add_39                   2 1 conv2d_410.tmp_0 relu_76.tmp_0_splitncnn_0 elementwise_add_31
ReLU                     Relu_78                  1 1 elementwise_add_31 relu_78.tmp_0
Split                    splitncnn_41             1 3 relu_78.tmp_0 relu_78.tmp_0_splitncnn_0 relu_78.tmp_0_splitncnn_1 relu_78.tmp_0_splitncnn_2
Convolution              Conv_83                  1 1 relu_62.tmp_0_splitncnn_1 relu_79.tmp_0 0=72 1=3 4=-233 5=1 6=46656 9=1
Convolution              Conv_84                  1 1 relu_79.tmp_0 conv2d_412.tmp_0 0=72 1=3 4=-233 5=1 6=46656
BinaryOp                 Add_40                   2 1 conv2d_412.tmp_0 relu_62.tmp_0_splitncnn_0 elementwise_add_32
ReLU                     Relu_80                  1 1 elementwise_add_32 relu_80.tmp_0
Split                    splitncnn_42             1 2 relu_80.tmp_0 relu_80.tmp_0_splitncnn_0 relu_80.tmp_0_splitncnn_1
Convolution              Conv_85                  1 1 relu_80.tmp_0_splitncnn_1 relu_81.tmp_0 0=72 1=3 4=-233 5=1 6=46656 9=1
Convolution              Conv_86                  1 1 relu_81.tmp_0 conv2d_414.tmp_0 0=72 1=3 4=-233 5=1 6=46656
BinaryOp                 Add_41                   2 1 conv2d_414.tmp_0 relu_80.tmp_0_splitncnn_0 elementwise_add_33
ReLU                     Relu_82                  1 1 elementwise_add_33 relu_82.tmp_0
Split                    splitncnn_43             1 2 relu_82.tmp_0 relu_82.tmp_0_splitncnn_0 relu_82.tmp_0_splitncnn_1
Convolution              Conv_87                  1 1 relu_82.tmp_0_splitncnn_1 relu_83.tmp_0 0=72 1=3 4=-233 5=1 6=46656 9=1
Convolution              Conv_88                  1 1 relu_83.tmp_0 conv2d_416.tmp_0 0=72 1=3 4=-233 5=1 6=46656
BinaryOp                 Add_42                   2 1 conv2d_416.tmp_0 relu_82.tmp_0_splitncnn_0 elementwise_add_34
ReLU                     Relu_84                  1 1 elementwise_add_34 relu_84.tmp_0
Split                    splitncnn_44             1 2 relu_84.tmp_0 relu_84.tmp_0_splitncnn_0 relu_84.tmp_0_splitncnn_1
Convolution              Conv_89                  1 1 relu_84.tmp_0_splitncnn_1 relu_85.tmp_0 0=72 1=3 4=-233 5=1 6=46656 9=1
Convolution              Conv_90                  1 1 relu_85.tmp_0 conv2d_418.tmp_0 0=72 1=3 4=-233 5=1 6=46656
BinaryOp                 Add_43                   2 1 conv2d_418.tmp_0 relu_84.tmp_0_splitncnn_0 elementwise_add_35
ReLU                     Relu_86                  1 1 elementwise_add_35 relu_86.tmp_0
Split                    splitncnn_45             1 3 relu_86.tmp_0 relu_86.tmp_0_splitncnn_0 relu_86.tmp_0_splitncnn_1 relu_86.tmp_0_splitncnn_2
Convolution              Conv_91                  1 1 relu_78.tmp_0_splitncnn_2 conv2d_419.tmp_0 0=18 1=1 4=-233 5=1 6=648
Interp                   Resize_4                 1 1 conv2d_419.tmp_0 bilinear_interp_v2_4.tmp_0 0=2 3=128 4=128
BinaryOp                 Add_44                   2 1 relu_70.tmp_0_splitncnn_2 bilinear_interp_v2_4.tmp_0 tmp_8
Convolution              Conv_92                  1 1 relu_86.tmp_0_splitncnn_2 conv2d_420.tmp_0 0=18 1=1 4=-233 5=1 6=1296
Interp                   Resize_5                 1 1 conv2d_420.tmp_0 bilinear_interp_v2_5.tmp_0 0=2 3=128 4=128
BinaryOp                 Add_45                   2 1 tmp_8 bilinear_interp_v2_5.tmp_0 tmp_9
ReLU                     Relu_87                  1 1 tmp_9 relu_87.tmp_0
Split                    splitncnn_46             1 2 relu_87.tmp_0 relu_87.tmp_0_splitncnn_0 relu_87.tmp_0_splitncnn_1
Convolution              Conv_93                  1 1 relu_70.tmp_0_splitncnn_1 conv2d_421.tmp_0 0=36 1=3 3=2 4=-233 5=1 6=5832
BinaryOp                 Add_46                   2 1 relu_78.tmp_0_splitncnn_1 conv2d_421.tmp_0 tmp_10
Convolution              Conv_94                  1 1 relu_86.tmp_0_splitncnn_1 conv2d_422.tmp_0 0=36 1=1 4=-233 5=1 6=2592
Interp                   Resize_6                 1 1 conv2d_422.tmp_0 bilinear_interp_v2_6.tmp_0 0=2 3=64 4=64
BinaryOp                 Add_47                   2 1 tmp_10 bilinear_interp_v2_6.tmp_0 tmp_11
ReLU                     Relu_88                  1 1 tmp_11 relu_88.tmp_0
Split                    splitncnn_47             1 2 relu_88.tmp_0 relu_88.tmp_0_splitncnn_0 relu_88.tmp_0_splitncnn_1
Convolution              Conv_95                  1 1 relu_70.tmp_0_splitncnn_0 relu_89.tmp_0 0=18 1=3 3=2 4=-233 5=1 6=2916 9=1
Convolution              Conv_96                  1 1 relu_89.tmp_0 conv2d_424.tmp_0 0=72 1=3 3=2 4=-233 5=1 6=11664
BinaryOp                 Add_48                   2 1 relu_86.tmp_0_splitncnn_0 conv2d_424.tmp_0 tmp_12
Convolution              Conv_97                  1 1 relu_78.tmp_0_splitncnn_0 conv2d_425.tmp_0 0=72 1=3 3=2 4=-233 5=1 6=23328
BinaryOp                 Add_49                   2 1 tmp_12 conv2d_425.tmp_0 tmp_13
ReLU                     Relu_90                  1 1 tmp_13 relu_90.tmp_0
Split                    splitncnn_48             1 2 relu_90.tmp_0 relu_90.tmp_0_splitncnn_0 relu_90.tmp_0_splitncnn_1
Convolution              Conv_98                  1 1 relu_87.tmp_0_splitncnn_1 relu_91.tmp_0 0=18 1=3 4=-233 5=1 6=2916 9=1
Convolution              Conv_99                  1 1 relu_91.tmp_0 conv2d_427.tmp_0 0=18 1=3 4=-233 5=1 6=2916
BinaryOp                 Add_50                   2 1 conv2d_427.tmp_0 relu_87.tmp_0_splitncnn_0 elementwise_add_36
ReLU                     Relu_92                  1 1 elementwise_add_36 relu_92.tmp_0
Split                    splitncnn_49             1 2 relu_92.tmp_0 relu_92.tmp_0_splitncnn_0 relu_92.tmp_0_splitncnn_1
Convolution              Conv_100                 1 1 relu_92.tmp_0_splitncnn_1 relu_93.tmp_0 0=18 1=3 4=-233 5=1 6=2916 9=1
Convolution              Conv_101                 1 1 relu_93.tmp_0 conv2d_429.tmp_0 0=18 1=3 4=-233 5=1 6=2916
BinaryOp                 Add_51                   2 1 conv2d_429.tmp_0 relu_92.tmp_0_splitncnn_0 elementwise_add_37
ReLU                     Relu_94                  1 1 elementwise_add_37 relu_94.tmp_0
Split                    splitncnn_50             1 2 relu_94.tmp_0 relu_94.tmp_0_splitncnn_0 relu_94.tmp_0_splitncnn_1
Convolution              Conv_102                 1 1 relu_94.tmp_0_splitncnn_1 relu_95.tmp_0 0=18 1=3 4=-233 5=1 6=2916 9=1
Convolution              Conv_103                 1 1 relu_95.tmp_0 conv2d_431.tmp_0 0=18 1=3 4=-233 5=1 6=2916
BinaryOp                 Add_52                   2 1 conv2d_431.tmp_0 relu_94.tmp_0_splitncnn_0 elementwise_add_38
ReLU                     Relu_96                  1 1 elementwise_add_38 relu_96.tmp_0
Split                    splitncnn_51             1 2 relu_96.tmp_0 relu_96.tmp_0_splitncnn_0 relu_96.tmp_0_splitncnn_1
Convolution              Conv_104                 1 1 relu_96.tmp_0_splitncnn_1 relu_97.tmp_0 0=18 1=3 4=-233 5=1 6=2916 9=1
Convolution              Conv_105                 1 1 relu_97.tmp_0 conv2d_433.tmp_0 0=18 1=3 4=-233 5=1 6=2916
BinaryOp                 Add_53                   2 1 conv2d_433.tmp_0 relu_96.tmp_0_splitncnn_0 elementwise_add_39
ReLU                     Relu_98                  1 1 elementwise_add_39 relu_98.tmp_0
Split                    splitncnn_52             1 3 relu_98.tmp_0 relu_98.tmp_0_splitncnn_0 relu_98.tmp_0_splitncnn_1 relu_98.tmp_0_splitncnn_2
Convolution              Conv_106                 1 1 relu_88.tmp_0_splitncnn_1 relu_99.tmp_0 0=36 1=3 4=-233 5=1 6=11664 9=1
Convolution              Conv_107                 1 1 relu_99.tmp_0 conv2d_435.tmp_0 0=36 1=3 4=-233 5=1 6=11664
BinaryOp                 Add_54                   2 1 conv2d_435.tmp_0 relu_88.tmp_0_splitncnn_0 elementwise_add_40
ReLU                     Relu_100                 1 1 elementwise_add_40 relu_100.tmp_0
Split                    splitncnn_53             1 2 relu_100.tmp_0 relu_100.tmp_0_splitncnn_0 relu_100.tmp_0_splitncnn_1
Convolution              Conv_108                 1 1 relu_100.tmp_0_splitncnn_1 relu_101.tmp_0 0=36 1=3 4=-233 5=1 6=11664 9=1
Convolution              Conv_109                 1 1 relu_101.tmp_0 conv2d_437.tmp_0 0=36 1=3 4=-233 5=1 6=11664
BinaryOp                 Add_55                   2 1 conv2d_437.tmp_0 relu_100.tmp_0_splitncnn_0 elementwise_add_41
ReLU                     Relu_102                 1 1 elementwise_add_41 relu_102.tmp_0
Split                    splitncnn_54             1 2 relu_102.tmp_0 relu_102.tmp_0_splitncnn_0 relu_102.tmp_0_splitncnn_1
Convolution              Conv_110                 1 1 relu_102.tmp_0_splitncnn_1 relu_103.tmp_0 0=36 1=3 4=-233 5=1 6=11664 9=1
Convolution              Conv_111                 1 1 relu_103.tmp_0 conv2d_439.tmp_0 0=36 1=3 4=-233 5=1 6=11664
BinaryOp                 Add_56                   2 1 conv2d_439.tmp_0 relu_102.tmp_0_splitncnn_0 elementwise_add_42
ReLU                     Relu_104                 1 1 elementwise_add_42 relu_104.tmp_0
Split                    splitncnn_55             1 2 relu_104.tmp_0 relu_104.tmp_0_splitncnn_0 relu_104.tmp_0_splitncnn_1
Convolution              Conv_112                 1 1 relu_104.tmp_0_splitncnn_1 relu_105.tmp_0 0=36 1=3 4=-233 5=1 6=11664 9=1
Convolution              Conv_113                 1 1 relu_105.tmp_0 conv2d_441.tmp_0 0=36 1=3 4=-233 5=1 6=11664
BinaryOp                 Add_57                   2 1 conv2d_441.tmp_0 relu_104.tmp_0_splitncnn_0 elementwise_add_43
ReLU                     Relu_106                 1 1 elementwise_add_43 relu_106.tmp_0
Split                    splitncnn_56             1 3 relu_106.tmp_0 relu_106.tmp_0_splitncnn_0 relu_106.tmp_0_splitncnn_1 relu_106.tmp_0_splitncnn_2
Convolution              Conv_114                 1 1 relu_90.tmp_0_splitncnn_1 relu_107.tmp_0 0=72 1=3 4=-233 5=1 6=46656 9=1
Convolution              Conv_115                 1 1 relu_107.tmp_0 conv2d_443.tmp_0 0=72 1=3 4=-233 5=1 6=46656
BinaryOp                 Add_58                   2 1 conv2d_443.tmp_0 relu_90.tmp_0_splitncnn_0 elementwise_add_44
ReLU                     Relu_108                 1 1 elementwise_add_44 relu_108.tmp_0
Split                    splitncnn_57             1 2 relu_108.tmp_0 relu_108.tmp_0_splitncnn_0 relu_108.tmp_0_splitncnn_1
Convolution              Conv_116                 1 1 relu_108.tmp_0_splitncnn_1 relu_109.tmp_0 0=72 1=3 4=-233 5=1 6=46656 9=1
Convolution              Conv_117                 1 1 relu_109.tmp_0 conv2d_445.tmp_0 0=72 1=3 4=-233 5=1 6=46656
BinaryOp                 Add_59                   2 1 conv2d_445.tmp_0 relu_108.tmp_0_splitncnn_0 elementwise_add_45
ReLU                     Relu_110                 1 1 elementwise_add_45 relu_110.tmp_0
Split                    splitncnn_58             1 2 relu_110.tmp_0 relu_110.tmp_0_splitncnn_0 relu_110.tmp_0_splitncnn_1
Convolution              Conv_118                 1 1 relu_110.tmp_0_splitncnn_1 relu_111.tmp_0 0=72 1=3 4=-233 5=1 6=46656 9=1
Convolution              Conv_119                 1 1 relu_111.tmp_0 conv2d_447.tmp_0 0=72 1=3 4=-233 5=1 6=46656
BinaryOp                 Add_60                   2 1 conv2d_447.tmp_0 relu_110.tmp_0_splitncnn_0 elementwise_add_46
ReLU                     Relu_112                 1 1 elementwise_add_46 relu_112.tmp_0
Split                    splitncnn_59             1 2 relu_112.tmp_0 relu_112.tmp_0_splitncnn_0 relu_112.tmp_0_splitncnn_1
Convolution              Conv_120                 1 1 relu_112.tmp_0_splitncnn_1 relu_113.tmp_0 0=72 1=3 4=-233 5=1 6=46656 9=1
Convolution              Conv_121                 1 1 relu_113.tmp_0 conv2d_449.tmp_0 0=72 1=3 4=-233 5=1 6=46656
BinaryOp                 Add_61                   2 1 conv2d_449.tmp_0 relu_112.tmp_0_splitncnn_0 elementwise_add_47
ReLU                     Relu_114                 1 1 elementwise_add_47 relu_114.tmp_0
Split                    splitncnn_60             1 3 relu_114.tmp_0 relu_114.tmp_0_splitncnn_0 relu_114.tmp_0_splitncnn_1 relu_114.tmp_0_splitncnn_2
Convolution              Conv_122                 1 1 relu_106.tmp_0_splitncnn_2 conv2d_450.tmp_0 0=18 1=1 4=-233 5=1 6=648
Interp                   Resize_7                 1 1 conv2d_450.tmp_0 bilinear_interp_v2_7.tmp_0 0=2 3=128 4=128
BinaryOp                 Add_62                   2 1 relu_98.tmp_0_splitncnn_2 bilinear_interp_v2_7.tmp_0 tmp_14
Convolution              Conv_123                 1 1 relu_114.tmp_0_splitncnn_2 conv2d_451.tmp_0 0=18 1=1 4=-233 5=1 6=1296
Interp                   Resize_8                 1 1 conv2d_451.tmp_0 bilinear_interp_v2_8.tmp_0 0=2 3=128 4=128
BinaryOp                 Add_63                   2 1 tmp_14 bilinear_interp_v2_8.tmp_0 tmp_15
ReLU                     Relu_115                 1 1 tmp_15 relu_115.tmp_0
Split                    splitncnn_61             1 2 relu_115.tmp_0 relu_115.tmp_0_splitncnn_0 relu_115.tmp_0_splitncnn_1
Convolution              Conv_124                 1 1 relu_98.tmp_0_splitncnn_1 conv2d_452.tmp_0 0=36 1=3 3=2 4=-233 5=1 6=5832
BinaryOp                 Add_64                   2 1 relu_106.tmp_0_splitncnn_1 conv2d_452.tmp_0 tmp_16
Convolution              Conv_125                 1 1 relu_114.tmp_0_splitncnn_1 conv2d_453.tmp_0 0=36 1=1 4=-233 5=1 6=2592
Interp                   Resize_9                 1 1 conv2d_453.tmp_0 bilinear_interp_v2_9.tmp_0 0=2 3=64 4=64
BinaryOp                 Add_65                   2 1 tmp_16 bilinear_interp_v2_9.tmp_0 tmp_17
ReLU                     Relu_116                 1 1 tmp_17 relu_116.tmp_0
Split                    splitncnn_62             1 2 relu_116.tmp_0 relu_116.tmp_0_splitncnn_0 relu_116.tmp_0_splitncnn_1
Convolution              Conv_126                 1 1 relu_98.tmp_0_splitncnn_0 relu_117.tmp_0 0=18 1=3 3=2 4=-233 5=1 6=2916 9=1
Convolution              Conv_127                 1 1 relu_117.tmp_0 conv2d_455.tmp_0 0=72 1=3 3=2 4=-233 5=1 6=11664
BinaryOp                 Add_66                   2 1 relu_114.tmp_0_splitncnn_0 conv2d_455.tmp_0 tmp_18
Convolution              Conv_128                 1 1 relu_106.tmp_0_splitncnn_0 conv2d_456.tmp_0 0=72 1=3 3=2 4=-233 5=1 6=23328
BinaryOp                 Add_67                   2 1 tmp_18 conv2d_456.tmp_0 tmp_19
ReLU                     Relu_118                 1 1 tmp_19 relu_118.tmp_0
Split                    splitncnn_63             1 2 relu_118.tmp_0 relu_118.tmp_0_splitncnn_0 relu_118.tmp_0_splitncnn_1
Convolution              Conv_129                 1 1 relu_115.tmp_0_splitncnn_1 relu_119.tmp_0 0=18 1=3 4=-233 5=1 6=2916 9=1
Convolution              Conv_130                 1 1 relu_119.tmp_0 conv2d_458.tmp_0 0=18 1=3 4=-233 5=1 6=2916
BinaryOp                 Add_68                   2 1 conv2d_458.tmp_0 relu_115.tmp_0_splitncnn_0 elementwise_add_48
ReLU                     Relu_120                 1 1 elementwise_add_48 relu_120.tmp_0
Split                    splitncnn_64             1 2 relu_120.tmp_0 relu_120.tmp_0_splitncnn_0 relu_120.tmp_0_splitncnn_1
Convolution              Conv_131                 1 1 relu_120.tmp_0_splitncnn_1 relu_121.tmp_0 0=18 1=3 4=-233 5=1 6=2916 9=1
Convolution              Conv_132                 1 1 relu_121.tmp_0 conv2d_460.tmp_0 0=18 1=3 4=-233 5=1 6=2916
BinaryOp                 Add_69                   2 1 conv2d_460.tmp_0 relu_120.tmp_0_splitncnn_0 elementwise_add_49
ReLU                     Relu_122                 1 1 elementwise_add_49 relu_122.tmp_0
Split                    splitncnn_65             1 2 relu_122.tmp_0 relu_122.tmp_0_splitncnn_0 relu_122.tmp_0_splitncnn_1
Convolution              Conv_133                 1 1 relu_122.tmp_0_splitncnn_1 relu_123.tmp_0 0=18 1=3 4=-233 5=1 6=2916 9=1
Convolution              Conv_134                 1 1 relu_123.tmp_0 conv2d_462.tmp_0 0=18 1=3 4=-233 5=1 6=2916
BinaryOp                 Add_70                   2 1 conv2d_462.tmp_0 relu_122.tmp_0_splitncnn_0 elementwise_add_50
ReLU                     Relu_124                 1 1 elementwise_add_50 relu_124.tmp_0
Split                    splitncnn_66             1 2 relu_124.tmp_0 relu_124.tmp_0_splitncnn_0 relu_124.tmp_0_splitncnn_1
Convolution              Conv_135                 1 1 relu_124.tmp_0_splitncnn_1 relu_125.tmp_0 0=18 1=3 4=-233 5=1 6=2916 9=1
Convolution              Conv_136                 1 1 relu_125.tmp_0 conv2d_464.tmp_0 0=18 1=3 4=-233 5=1 6=2916
BinaryOp                 Add_71                   2 1 conv2d_464.tmp_0 relu_124.tmp_0_splitncnn_0 elementwise_add_51
ReLU                     Relu_126                 1 1 elementwise_add_51 relu_126.tmp_0
Split                    splitncnn_67             1 3 relu_126.tmp_0 relu_126.tmp_0_splitncnn_0 relu_126.tmp_0_splitncnn_1 relu_126.tmp_0_splitncnn_2
Convolution              Conv_137                 1 1 relu_116.tmp_0_splitncnn_1 relu_127.tmp_0 0=36 1=3 4=-233 5=1 6=11664 9=1
Convolution              Conv_138                 1 1 relu_127.tmp_0 conv2d_466.tmp_0 0=36 1=3 4=-233 5=1 6=11664
BinaryOp                 Add_72                   2 1 conv2d_466.tmp_0 relu_116.tmp_0_splitncnn_0 elementwise_add_52
ReLU                     Relu_128                 1 1 elementwise_add_52 relu_128.tmp_0
Split                    splitncnn_68             1 2 relu_128.tmp_0 relu_128.tmp_0_splitncnn_0 relu_128.tmp_0_splitncnn_1
Convolution              Conv_139                 1 1 relu_128.tmp_0_splitncnn_1 relu_129.tmp_0 0=36 1=3 4=-233 5=1 6=11664 9=1
Convolution              Conv_140                 1 1 relu_129.tmp_0 conv2d_468.tmp_0 0=36 1=3 4=-233 5=1 6=11664
BinaryOp                 Add_73                   2 1 conv2d_468.tmp_0 relu_128.tmp_0_splitncnn_0 elementwise_add_53
ReLU                     Relu_130                 1 1 elementwise_add_53 relu_130.tmp_0
Split                    splitncnn_69             1 2 relu_130.tmp_0 relu_130.tmp_0_splitncnn_0 relu_130.tmp_0_splitncnn_1
Convolution              Conv_141                 1 1 relu_130.tmp_0_splitncnn_1 relu_131.tmp_0 0=36 1=3 4=-233 5=1 6=11664 9=1
Convolution              Conv_142                 1 1 relu_131.tmp_0 conv2d_470.tmp_0 0=36 1=3 4=-233 5=1 6=11664
BinaryOp                 Add_74                   2 1 conv2d_470.tmp_0 relu_130.tmp_0_splitncnn_0 elementwise_add_54
ReLU                     Relu_132                 1 1 elementwise_add_54 relu_132.tmp_0
Split                    splitncnn_70             1 2 relu_132.tmp_0 relu_132.tmp_0_splitncnn_0 relu_132.tmp_0_splitncnn_1
Convolution              Conv_143                 1 1 relu_132.tmp_0_splitncnn_1 relu_133.tmp_0 0=36 1=3 4=-233 5=1 6=11664 9=1
Convolution              Conv_144                 1 1 relu_133.tmp_0 conv2d_472.tmp_0 0=36 1=3 4=-233 5=1 6=11664
BinaryOp                 Add_75                   2 1 conv2d_472.tmp_0 relu_132.tmp_0_splitncnn_0 elementwise_add_55
ReLU                     Relu_134                 1 1 elementwise_add_55 relu_134.tmp_0
Split                    splitncnn_71             1 3 relu_134.tmp_0 relu_134.tmp_0_splitncnn_0 relu_134.tmp_0_splitncnn_1 relu_134.tmp_0_splitncnn_2
Convolution              Conv_145                 1 1 relu_118.tmp_0_splitncnn_1 relu_135.tmp_0 0=72 1=3 4=-233 5=1 6=46656 9=1
Convolution              Conv_146                 1 1 relu_135.tmp_0 conv2d_474.tmp_0 0=72 1=3 4=-233 5=1 6=46656
BinaryOp                 Add_76                   2 1 conv2d_474.tmp_0 relu_118.tmp_0_splitncnn_0 elementwise_add_56
ReLU                     Relu_136                 1 1 elementwise_add_56 relu_136.tmp_0
Split                    splitncnn_72             1 2 relu_136.tmp_0 relu_136.tmp_0_splitncnn_0 relu_136.tmp_0_splitncnn_1
Convolution              Conv_147                 1 1 relu_136.tmp_0_splitncnn_1 relu_137.tmp_0 0=72 1=3 4=-233 5=1 6=46656 9=1
Convolution              Conv_148                 1 1 relu_137.tmp_0 conv2d_476.tmp_0 0=72 1=3 4=-233 5=1 6=46656
BinaryOp                 Add_77                   2 1 conv2d_476.tmp_0 relu_136.tmp_0_splitncnn_0 elementwise_add_57
ReLU                     Relu_138                 1 1 elementwise_add_57 relu_138.tmp_0
Split                    splitncnn_73             1 2 relu_138.tmp_0 relu_138.tmp_0_splitncnn_0 relu_138.tmp_0_splitncnn_1
Convolution              Conv_149                 1 1 relu_138.tmp_0_splitncnn_1 relu_139.tmp_0 0=72 1=3 4=-233 5=1 6=46656 9=1
Convolution              Conv_150                 1 1 relu_139.tmp_0 conv2d_478.tmp_0 0=72 1=3 4=-233 5=1 6=46656
BinaryOp                 Add_78                   2 1 conv2d_478.tmp_0 relu_138.tmp_0_splitncnn_0 elementwise_add_58
ReLU                     Relu_140                 1 1 elementwise_add_58 relu_140.tmp_0
Split                    splitncnn_74             1 2 relu_140.tmp_0 relu_140.tmp_0_splitncnn_0 relu_140.tmp_0_splitncnn_1
Convolution              Conv_151                 1 1 relu_140.tmp_0_splitncnn_1 relu_141.tmp_0 0=72 1=3 4=-233 5=1 6=46656 9=1
Convolution              Conv_152                 1 1 relu_141.tmp_0 conv2d_480.tmp_0 0=72 1=3 4=-233 5=1 6=46656
BinaryOp                 Add_79                   2 1 conv2d_480.tmp_0 relu_140.tmp_0_splitncnn_0 elementwise_add_59
ReLU                     Relu_142                 1 1 elementwise_add_59 relu_142.tmp_0
Split                    splitncnn_75             1 3 relu_142.tmp_0 relu_142.tmp_0_splitncnn_0 relu_142.tmp_0_splitncnn_1 relu_142.tmp_0_splitncnn_2
Convolution              Conv_153                 1 1 relu_134.tmp_0_splitncnn_2 conv2d_481.tmp_0 0=18 1=1 4=-233 5=1 6=648
Interp                   Resize_10                1 1 conv2d_481.tmp_0 bilinear_interp_v2_10.tmp_0 0=2 3=128 4=128
BinaryOp                 Add_80                   2 1 relu_126.tmp_0_splitncnn_2 bilinear_interp_v2_10.tmp_0 tmp_20
Convolution              Conv_154                 1 1 relu_142.tmp_0_splitncnn_2 conv2d_482.tmp_0 0=18 1=1 4=-233 5=1 6=1296
Interp                   Resize_11                1 1 conv2d_482.tmp_0 bilinear_interp_v2_11.tmp_0 0=2 3=128 4=128
BinaryOp                 Add_81                   2 1 tmp_20 bilinear_interp_v2_11.tmp_0 tmp_21
ReLU                     Relu_143                 1 1 tmp_21 relu_143.tmp_0
Split                    splitncnn_76             1 2 relu_143.tmp_0 relu_143.tmp_0_splitncnn_0 relu_143.tmp_0_splitncnn_1
Convolution              Conv_155                 1 1 relu_126.tmp_0_splitncnn_1 conv2d_483.tmp_0 0=36 1=3 3=2 4=-233 5=1 6=5832
BinaryOp                 Add_82                   2 1 relu_134.tmp_0_splitncnn_1 conv2d_483.tmp_0 tmp_22
Convolution              Conv_156                 1 1 relu_142.tmp_0_splitncnn_1 conv2d_484.tmp_0 0=36 1=1 4=-233 5=1 6=2592
Interp                   Resize_12                1 1 conv2d_484.tmp_0 bilinear_interp_v2_12.tmp_0 0=2 3=64 4=64
BinaryOp                 Add_83                   2 1 tmp_22 bilinear_interp_v2_12.tmp_0 tmp_23
ReLU                     Relu_144                 1 1 tmp_23 relu_144.tmp_0
Split                    splitncnn_77             1 2 relu_144.tmp_0 relu_144.tmp_0_splitncnn_0 relu_144.tmp_0_splitncnn_1
Convolution              Conv_157                 1 1 relu_126.tmp_0_splitncnn_0 relu_145.tmp_0 0=18 1=3 3=2 4=-233 5=1 6=2916 9=1
Convolution              Conv_158                 1 1 relu_145.tmp_0 conv2d_486.tmp_0 0=72 1=3 3=2 4=-233 5=1 6=11664
BinaryOp                 Add_84                   2 1 relu_142.tmp_0_splitncnn_0 conv2d_486.tmp_0 tmp_24
Convolution              Conv_159                 1 1 relu_134.tmp_0_splitncnn_0 conv2d_487.tmp_0 0=72 1=3 3=2 4=-233 5=1 6=23328
BinaryOp                 Add_85                   2 1 tmp_24 conv2d_487.tmp_0 tmp_25
ReLU                     Relu_146                 1 1 tmp_25 relu_146.tmp_0
Split                    splitncnn_78             1 3 relu_146.tmp_0 relu_146.tmp_0_splitncnn_0 relu_146.tmp_0_splitncnn_1 relu_146.tmp_0_splitncnn_2
Convolution              Conv_160                 1 1 relu_146.tmp_0_splitncnn_2 relu_147.tmp_0 0=144 1=3 3=2 4=-233 5=1 6=93312 9=1
Split                    splitncnn_79             1 2 relu_147.tmp_0 relu_147.tmp_0_splitncnn_0 relu_147.tmp_0_splitncnn_1
Convolution              Conv_161                 1 1 relu_143.tmp_0_splitncnn_1 relu_148.tmp_0 0=18 1=3 4=-233 5=1 6=2916 9=1
Convolution              Conv_162                 1 1 relu_148.tmp_0 conv2d_490.tmp_0 0=18 1=3 4=-233 5=1 6=2916
BinaryOp                 Add_86                   2 1 conv2d_490.tmp_0 relu_143.tmp_0_splitncnn_0 elementwise_add_60
ReLU                     Relu_149                 1 1 elementwise_add_60 relu_149.tmp_0
Split                    splitncnn_80             1 2 relu_149.tmp_0 relu_149.tmp_0_splitncnn_0 relu_149.tmp_0_splitncnn_1
Convolution              Conv_163                 1 1 relu_149.tmp_0_splitncnn_1 relu_150.tmp_0 0=18 1=3 4=-233 5=1 6=2916 9=1
Convolution              Conv_164                 1 1 relu_150.tmp_0 conv2d_492.tmp_0 0=18 1=3 4=-233 5=1 6=2916
BinaryOp                 Add_87                   2 1 conv2d_492.tmp_0 relu_149.tmp_0_splitncnn_0 elementwise_add_61
ReLU                     Relu_151                 1 1 elementwise_add_61 relu_151.tmp_0
Split                    splitncnn_81             1 2 relu_151.tmp_0 relu_151.tmp_0_splitncnn_0 relu_151.tmp_0_splitncnn_1
Convolution              Conv_165                 1 1 relu_151.tmp_0_splitncnn_1 relu_152.tmp_0 0=18 1=3 4=-233 5=1 6=2916 9=1
Convolution              Conv_166                 1 1 relu_152.tmp_0 conv2d_494.tmp_0 0=18 1=3 4=-233 5=1 6=2916
BinaryOp                 Add_88                   2 1 conv2d_494.tmp_0 relu_151.tmp_0_splitncnn_0 elementwise_add_62
ReLU                     Relu_153                 1 1 elementwise_add_62 relu_153.tmp_0
Split                    splitncnn_82             1 2 relu_153.tmp_0 relu_153.tmp_0_splitncnn_0 relu_153.tmp_0_splitncnn_1
Convolution              Conv_167                 1 1 relu_153.tmp_0_splitncnn_1 relu_154.tmp_0 0=18 1=3 4=-233 5=1 6=2916 9=1
Convolution              Conv_168                 1 1 relu_154.tmp_0 conv2d_496.tmp_0 0=18 1=3 4=-233 5=1 6=2916
BinaryOp                 Add_89                   2 1 conv2d_496.tmp_0 relu_153.tmp_0_splitncnn_0 elementwise_add_63
ReLU                     Relu_155                 1 1 elementwise_add_63 relu_155.tmp_0
Split                    splitncnn_83             1 4 relu_155.tmp_0 relu_155.tmp_0_splitncnn_0 relu_155.tmp_0_splitncnn_1 relu_155.tmp_0_splitncnn_2 relu_155.tmp_0_splitncnn_3
Convolution              Conv_169                 1 1 relu_144.tmp_0_splitncnn_1 relu_156.tmp_0 0=36 1=3 4=-233 5=1 6=11664 9=1
Convolution              Conv_170                 1 1 relu_156.tmp_0 conv2d_498.tmp_0 0=36 1=3 4=-233 5=1 6=11664
BinaryOp                 Add_90                   2 1 conv2d_498.tmp_0 relu_144.tmp_0_splitncnn_0 elementwise_add_64
ReLU                     Relu_157                 1 1 elementwise_add_64 relu_157.tmp_0
Split                    splitncnn_84             1 2 relu_157.tmp_0 relu_157.tmp_0_splitncnn_0 relu_157.tmp_0_splitncnn_1
Convolution              Conv_171                 1 1 relu_157.tmp_0_splitncnn_1 relu_158.tmp_0 0=36 1=3 4=-233 5=1 6=11664 9=1
Convolution              Conv_172                 1 1 relu_158.tmp_0 conv2d_500.tmp_0 0=36 1=3 4=-233 5=1 6=11664
BinaryOp                 Add_91                   2 1 conv2d_500.tmp_0 relu_157.tmp_0_splitncnn_0 elementwise_add_65
ReLU                     Relu_159                 1 1 elementwise_add_65 relu_159.tmp_0
Split                    splitncnn_85             1 2 relu_159.tmp_0 relu_159.tmp_0_splitncnn_0 relu_159.tmp_0_splitncnn_1
Convolution              Conv_173                 1 1 relu_159.tmp_0_splitncnn_1 relu_160.tmp_0 0=36 1=3 4=-233 5=1 6=11664 9=1
Convolution              Conv_174                 1 1 relu_160.tmp_0 conv2d_502.tmp_0 0=36 1=3 4=-233 5=1 6=11664
BinaryOp                 Add_92                   2 1 conv2d_502.tmp_0 relu_159.tmp_0_splitncnn_0 elementwise_add_66
ReLU                     Relu_161                 1 1 elementwise_add_66 relu_161.tmp_0
Split                    splitncnn_86             1 2 relu_161.tmp_0 relu_161.tmp_0_splitncnn_0 relu_161.tmp_0_splitncnn_1
Convolution              Conv_175                 1 1 relu_161.tmp_0_splitncnn_1 relu_162.tmp_0 0=36 1=3 4=-233 5=1 6=11664 9=1
Convolution              Conv_176                 1 1 relu_162.tmp_0 conv2d_504.tmp_0 0=36 1=3 4=-233 5=1 6=11664
BinaryOp                 Add_93                   2 1 conv2d_504.tmp_0 relu_161.tmp_0_splitncnn_0 elementwise_add_67
ReLU                     Relu_163                 1 1 elementwise_add_67 relu_163.tmp_0
Split                    splitncnn_87             1 4 relu_163.tmp_0 relu_163.tmp_0_splitncnn_0 relu_163.tmp_0_splitncnn_1 relu_163.tmp_0_splitncnn_2 relu_163.tmp_0_splitncnn_3
Convolution              Conv_177                 1 1 relu_146.tmp_0_splitncnn_1 relu_164.tmp_0 0=72 1=3 4=-233 5=1 6=46656 9=1
Convolution              Conv_178                 1 1 relu_164.tmp_0 conv2d_506.tmp_0 0=72 1=3 4=-233 5=1 6=46656
BinaryOp                 Add_94                   2 1 conv2d_506.tmp_0 relu_146.tmp_0_splitncnn_0 elementwise_add_68
ReLU                     Relu_165                 1 1 elementwise_add_68 relu_165.tmp_0
Split                    splitncnn_88             1 2 relu_165.tmp_0 relu_165.tmp_0_splitncnn_0 relu_165.tmp_0_splitncnn_1
Convolution              Conv_179                 1 1 relu_165.tmp_0_splitncnn_1 relu_166.tmp_0 0=72 1=3 4=-233 5=1 6=46656 9=1
Convolution              Conv_180                 1 1 relu_166.tmp_0 conv2d_508.tmp_0 0=72 1=3 4=-233 5=1 6=46656
BinaryOp                 Add_95                   2 1 conv2d_508.tmp_0 relu_165.tmp_0_splitncnn_0 elementwise_add_69
ReLU                     Relu_167                 1 1 elementwise_add_69 relu_167.tmp_0
Split                    splitncnn_89             1 2 relu_167.tmp_0 relu_167.tmp_0_splitncnn_0 relu_167.tmp_0_splitncnn_1
Convolution              Conv_181                 1 1 relu_167.tmp_0_splitncnn_1 relu_168.tmp_0 0=72 1=3 4=-233 5=1 6=46656 9=1
Convolution              Conv_182                 1 1 relu_168.tmp_0 conv2d_510.tmp_0 0=72 1=3 4=-233 5=1 6=46656
BinaryOp                 Add_96                   2 1 conv2d_510.tmp_0 relu_167.tmp_0_splitncnn_0 elementwise_add_70
ReLU                     Relu_169                 1 1 elementwise_add_70 relu_169.tmp_0
Split                    splitncnn_90             1 2 relu_169.tmp_0 relu_169.tmp_0_splitncnn_0 relu_169.tmp_0_splitncnn_1
Convolution              Conv_183                 1 1 relu_169.tmp_0_splitncnn_1 relu_170.tmp_0 0=72 1=3 4=-233 5=1 6=46656 9=1
Convolution              Conv_184                 1 1 relu_170.tmp_0 conv2d_512.tmp_0 0=72 1=3 4=-233 5=1 6=46656
BinaryOp                 Add_97                   2 1 conv2d_512.tmp_0 relu_169.tmp_0_splitncnn_0 elementwise_add_71
ReLU                     Relu_171                 1 1 elementwise_add_71 relu_171.tmp_0
Split                    splitncnn_91             1 4 relu_171.tmp_0 relu_171.tmp_0_splitncnn_0 relu_171.tmp_0_splitncnn_1 relu_171.tmp_0_splitncnn_2 relu_171.tmp_0_splitncnn_3
Convolution              Conv_185                 1 1 relu_147.tmp_0_splitncnn_1 relu_172.tmp_0 0=144 1=3 4=-233 5=1 6=186624 9=1
Convolution              Conv_186                 1 1 relu_172.tmp_0 conv2d_514.tmp_0 0=144 1=3 4=-233 5=1 6=186624
BinaryOp                 Add_98                   2 1 conv2d_514.tmp_0 relu_147.tmp_0_splitncnn_0 elementwise_add_72
ReLU                     Relu_173                 1 1 elementwise_add_72 relu_173.tmp_0
Split                    splitncnn_92             1 2 relu_173.tmp_0 relu_173.tmp_0_splitncnn_0 relu_173.tmp_0_splitncnn_1
Convolution              Conv_187                 1 1 relu_173.tmp_0_splitncnn_1 relu_174.tmp_0 0=144 1=3 4=-233 5=1 6=186624 9=1
Convolution              Conv_188                 1 1 relu_174.tmp_0 conv2d_516.tmp_0 0=144 1=3 4=-233 5=1 6=186624
BinaryOp                 Add_99                   2 1 conv2d_516.tmp_0 relu_173.tmp_0_splitncnn_0 elementwise_add_73
ReLU                     Relu_175                 1 1 elementwise_add_73 relu_175.tmp_0
Split                    splitncnn_93             1 2 relu_175.tmp_0 relu_175.tmp_0_splitncnn_0 relu_175.tmp_0_splitncnn_1
Convolution              Conv_189                 1 1 relu_175.tmp_0_splitncnn_1 relu_176.tmp_0 0=144 1=3 4=-233 5=1 6=186624 9=1
Convolution              Conv_190                 1 1 relu_176.tmp_0 conv2d_518.tmp_0 0=144 1=3 4=-233 5=1 6=186624
BinaryOp                 Add_100                  2 1 conv2d_518.tmp_0 relu_175.tmp_0_splitncnn_0 elementwise_add_74
ReLU                     Relu_177                 1 1 elementwise_add_74 relu_177.tmp_0
Split                    splitncnn_94             1 2 relu_177.tmp_0 relu_177.tmp_0_splitncnn_0 relu_177.tmp_0_splitncnn_1
Convolution              Conv_191                 1 1 relu_177.tmp_0_splitncnn_1 relu_178.tmp_0 0=144 1=3 4=-233 5=1 6=186624 9=1
Convolution              Conv_192                 1 1 relu_178.tmp_0 conv2d_520.tmp_0 0=144 1=3 4=-233 5=1 6=186624
BinaryOp                 Add_101                  2 1 conv2d_520.tmp_0 relu_177.tmp_0_splitncnn_0 elementwise_add_75
ReLU                     Relu_179                 1 1 elementwise_add_75 relu_179.tmp_0
Split                    splitncnn_95             1 4 relu_179.tmp_0 relu_179.tmp_0_splitncnn_0 relu_179.tmp_0_splitncnn_1 relu_179.tmp_0_splitncnn_2 relu_179.tmp_0_splitncnn_3
Convolution              Conv_193                 1 1 relu_163.tmp_0_splitncnn_3 conv2d_521.tmp_0 0=18 1=1 4=-233 5=1 6=648
Interp                   Resize_13                1 1 conv2d_521.tmp_0 bilinear_interp_v2_13.tmp_0 0=2 3=128 4=128
BinaryOp                 Add_102                  2 1 relu_155.tmp_0_splitncnn_3 bilinear_interp_v2_13.tmp_0 tmp_26
Convolution              Conv_194                 1 1 relu_171.tmp_0_splitncnn_3 conv2d_522.tmp_0 0=18 1=1 4=-233 5=1 6=1296
Interp                   Resize_14                1 1 conv2d_522.tmp_0 bilinear_interp_v2_14.tmp_0 0=2 3=128 4=128
BinaryOp                 Add_103                  2 1 tmp_26 bilinear_interp_v2_14.tmp_0 tmp_27
Convolution              Conv_195                 1 1 relu_179.tmp_0_splitncnn_3 conv2d_523.tmp_0 0=18 1=1 4=-233 5=1 6=2592
Interp                   Resize_15                1 1 conv2d_523.tmp_0 bilinear_interp_v2_15.tmp_0 0=2 3=128 4=128
BinaryOp                 Add_104                  2 1 tmp_27 bilinear_interp_v2_15.tmp_0 tmp_28
ReLU                     Relu_180                 1 1 tmp_28 relu_180.tmp_0
Split                    splitncnn_96             1 2 relu_180.tmp_0 relu_180.tmp_0_splitncnn_0 relu_180.tmp_0_splitncnn_1
Convolution              Conv_196                 1 1 relu_155.tmp_0_splitncnn_2 conv2d_524.tmp_0 0=36 1=3 3=2 4=-233 5=1 6=5832
BinaryOp                 Add_105                  2 1 relu_163.tmp_0_splitncnn_2 conv2d_524.tmp_0 tmp_29
Convolution              Conv_197                 1 1 relu_171.tmp_0_splitncnn_2 conv2d_525.tmp_0 0=36 1=1 4=-233 5=1 6=2592
Interp                   Resize_16                1 1 conv2d_525.tmp_0 bilinear_interp_v2_16.tmp_0 0=2 3=64 4=64
BinaryOp                 Add_106                  2 1 tmp_29 bilinear_interp_v2_16.tmp_0 tmp_30
Convolution              Conv_198                 1 1 relu_179.tmp_0_splitncnn_2 conv2d_526.tmp_0 0=36 1=1 4=-233 5=1 6=5184
Interp                   Resize_17                1 1 conv2d_526.tmp_0 bilinear_interp_v2_17.tmp_0 0=2 3=64 4=64
BinaryOp                 Add_107                  2 1 tmp_30 bilinear_interp_v2_17.tmp_0 tmp_31
ReLU                     Relu_181                 1 1 tmp_31 relu_181.tmp_0
Split                    splitncnn_97             1 2 relu_181.tmp_0 relu_181.tmp_0_splitncnn_0 relu_181.tmp_0_splitncnn_1
Convolution              Conv_199                 1 1 relu_155.tmp_0_splitncnn_1 relu_182.tmp_0 0=18 1=3 3=2 4=-233 5=1 6=2916 9=1
Convolution              Conv_200                 1 1 relu_182.tmp_0 conv2d_528.tmp_0 0=72 1=3 3=2 4=-233 5=1 6=11664
BinaryOp                 Add_108                  2 1 relu_171.tmp_0_splitncnn_1 conv2d_528.tmp_0 tmp_32
Convolution              Conv_201                 1 1 relu_163.tmp_0_splitncnn_1 conv2d_529.tmp_0 0=72 1=3 3=2 4=-233 5=1 6=23328
BinaryOp                 Add_109                  2 1 tmp_32 conv2d_529.tmp_0 tmp_33
Convolution              Conv_202                 1 1 relu_179.tmp_0_splitncnn_1 conv2d_530.tmp_0 0=72 1=1 4=-233 5=1 6=10368
Interp                   Resize_18                1 1 conv2d_530.tmp_0 bilinear_interp_v2_18.tmp_0 0=2 3=32 4=32
BinaryOp                 Add_110                  2 1 tmp_33 bilinear_interp_v2_18.tmp_0 tmp_34
ReLU                     Relu_183                 1 1 tmp_34 relu_183.tmp_0
Split                    splitncnn_98             1 2 relu_183.tmp_0 relu_183.tmp_0_splitncnn_0 relu_183.tmp_0_splitncnn_1
Convolution              Conv_203                 1 1 relu_155.tmp_0_splitncnn_0 relu_184.tmp_0 0=18 1=3 3=2 4=-233 5=1 6=2916 9=1
Convolution              Conv_204                 1 1 relu_184.tmp_0 relu_185.tmp_0 0=18 1=3 3=2 4=-233 5=1 6=2916 9=1
Convolution              Conv_205                 1 1 relu_185.tmp_0 conv2d_533.tmp_0 0=144 1=3 3=2 4=-233 5=1 6=23328
BinaryOp                 Add_111                  2 1 relu_179.tmp_0_splitncnn_0 conv2d_533.tmp_0 tmp_35
Convolution              Conv_206                 1 1 relu_163.tmp_0_splitncnn_0 relu_186.tmp_0 0=36 1=3 3=2 4=-233 5=1 6=11664 9=1
Convolution              Conv_207                 1 1 relu_186.tmp_0 conv2d_535.tmp_0 0=144 1=3 3=2 4=-233 5=1 6=46656
BinaryOp                 Add_112                  2 1 tmp_35 conv2d_535.tmp_0 tmp_36
Convolution              Conv_208                 1 1 relu_171.tmp_0_splitncnn_0 conv2d_536.tmp_0 0=144 1=3 3=2 4=-233 5=1 6=93312
BinaryOp                 Add_113                  2 1 tmp_36 conv2d_536.tmp_0 tmp_37
ReLU                     Relu_187                 1 1 tmp_37 relu_187.tmp_0
Split                    splitncnn_99             1 2 relu_187.tmp_0 relu_187.tmp_0_splitncnn_0 relu_187.tmp_0_splitncnn_1
Convolution              Conv_209                 1 1 relu_180.tmp_0_splitncnn_1 relu_188.tmp_0 0=18 1=3 4=-233 5=1 6=2916 9=1
Convolution              Conv_210                 1 1 relu_188.tmp_0 conv2d_538.tmp_0 0=18 1=3 4=-233 5=1 6=2916
BinaryOp                 Add_114                  2 1 conv2d_538.tmp_0 relu_180.tmp_0_splitncnn_0 elementwise_add_76
ReLU                     Relu_189                 1 1 elementwise_add_76 relu_189.tmp_0
Split                    splitncnn_100            1 2 relu_189.tmp_0 relu_189.tmp_0_splitncnn_0 relu_189.tmp_0_splitncnn_1
Convolution              Conv_211                 1 1 relu_189.tmp_0_splitncnn_1 relu_190.tmp_0 0=18 1=3 4=-233 5=1 6=2916 9=1
Convolution              Conv_212                 1 1 relu_190.tmp_0 conv2d_540.tmp_0 0=18 1=3 4=-233 5=1 6=2916
BinaryOp                 Add_115                  2 1 conv2d_540.tmp_0 relu_189.tmp_0_splitncnn_0 elementwise_add_77
ReLU                     Relu_191                 1 1 elementwise_add_77 relu_191.tmp_0
Split                    splitncnn_101            1 2 relu_191.tmp_0 relu_191.tmp_0_splitncnn_0 relu_191.tmp_0_splitncnn_1
Convolution              Conv_213                 1 1 relu_191.tmp_0_splitncnn_1 relu_192.tmp_0 0=18 1=3 4=-233 5=1 6=2916 9=1
Convolution              Conv_214                 1 1 relu_192.tmp_0 conv2d_542.tmp_0 0=18 1=3 4=-233 5=1 6=2916
BinaryOp                 Add_116                  2 1 conv2d_542.tmp_0 relu_191.tmp_0_splitncnn_0 elementwise_add_78
ReLU                     Relu_193                 1 1 elementwise_add_78 relu_193.tmp_0
Split                    splitncnn_102            1 2 relu_193.tmp_0 relu_193.tmp_0_splitncnn_0 relu_193.tmp_0_splitncnn_1
Convolution              Conv_215                 1 1 relu_193.tmp_0_splitncnn_1 relu_194.tmp_0 0=18 1=3 4=-233 5=1 6=2916 9=1
Convolution              Conv_216                 1 1 relu_194.tmp_0 conv2d_544.tmp_0 0=18 1=3 4=-233 5=1 6=2916
BinaryOp                 Add_117                  2 1 conv2d_544.tmp_0 relu_193.tmp_0_splitncnn_0 elementwise_add_79
ReLU                     Relu_195                 1 1 elementwise_add_79 relu_195.tmp_0
Split                    splitncnn_103            1 4 relu_195.tmp_0 relu_195.tmp_0_splitncnn_0 relu_195.tmp_0_splitncnn_1 relu_195.tmp_0_splitncnn_2 relu_195.tmp_0_splitncnn_3
Convolution              Conv_217                 1 1 relu_181.tmp_0_splitncnn_1 relu_196.tmp_0 0=36 1=3 4=-233 5=1 6=11664 9=1
Convolution              Conv_218                 1 1 relu_196.tmp_0 conv2d_546.tmp_0 0=36 1=3 4=-233 5=1 6=11664
BinaryOp                 Add_118                  2 1 conv2d_546.tmp_0 relu_181.tmp_0_splitncnn_0 elementwise_add_80
ReLU                     Relu_197                 1 1 elementwise_add_80 relu_197.tmp_0
Split                    splitncnn_104            1 2 relu_197.tmp_0 relu_197.tmp_0_splitncnn_0 relu_197.tmp_0_splitncnn_1
Convolution              Conv_219                 1 1 relu_197.tmp_0_splitncnn_1 relu_198.tmp_0 0=36 1=3 4=-233 5=1 6=11664 9=1
Convolution              Conv_220                 1 1 relu_198.tmp_0 conv2d_548.tmp_0 0=36 1=3 4=-233 5=1 6=11664
BinaryOp                 Add_119                  2 1 conv2d_548.tmp_0 relu_197.tmp_0_splitncnn_0 elementwise_add_81
ReLU                     Relu_199                 1 1 elementwise_add_81 relu_199.tmp_0
Split                    splitncnn_105            1 2 relu_199.tmp_0 relu_199.tmp_0_splitncnn_0 relu_199.tmp_0_splitncnn_1
Convolution              Conv_221                 1 1 relu_199.tmp_0_splitncnn_1 relu_200.tmp_0 0=36 1=3 4=-233 5=1 6=11664 9=1
Convolution              Conv_222                 1 1 relu_200.tmp_0 conv2d_550.tmp_0 0=36 1=3 4=-233 5=1 6=11664
BinaryOp                 Add_120                  2 1 conv2d_550.tmp_0 relu_199.tmp_0_splitncnn_0 elementwise_add_82
ReLU                     Relu_201                 1 1 elementwise_add_82 relu_201.tmp_0
Split                    splitncnn_106            1 2 relu_201.tmp_0 relu_201.tmp_0_splitncnn_0 relu_201.tmp_0_splitncnn_1
Convolution              Conv_223                 1 1 relu_201.tmp_0_splitncnn_1 relu_202.tmp_0 0=36 1=3 4=-233 5=1 6=11664 9=1
Convolution              Conv_224                 1 1 relu_202.tmp_0 conv2d_552.tmp_0 0=36 1=3 4=-233 5=1 6=11664
BinaryOp                 Add_121                  2 1 conv2d_552.tmp_0 relu_201.tmp_0_splitncnn_0 elementwise_add_83
ReLU                     Relu_203                 1 1 elementwise_add_83 relu_203.tmp_0
Split                    splitncnn_107            1 4 relu_203.tmp_0 relu_203.tmp_0_splitncnn_0 relu_203.tmp_0_splitncnn_1 relu_203.tmp_0_splitncnn_2 relu_203.tmp_0_splitncnn_3
Convolution              Conv_225                 1 1 relu_183.tmp_0_splitncnn_1 relu_204.tmp_0 0=72 1=3 4=-233 5=1 6=46656 9=1
Convolution              Conv_226                 1 1 relu_204.tmp_0 conv2d_554.tmp_0 0=72 1=3 4=-233 5=1 6=46656
BinaryOp                 Add_122                  2 1 conv2d_554.tmp_0 relu_183.tmp_0_splitncnn_0 elementwise_add_84
ReLU                     Relu_205                 1 1 elementwise_add_84 relu_205.tmp_0
Split                    splitncnn_108            1 2 relu_205.tmp_0 relu_205.tmp_0_splitncnn_0 relu_205.tmp_0_splitncnn_1
Convolution              Conv_227                 1 1 relu_205.tmp_0_splitncnn_1 relu_206.tmp_0 0=72 1=3 4=-233 5=1 6=46656 9=1
Convolution              Conv_228                 1 1 relu_206.tmp_0 conv2d_556.tmp_0 0=72 1=3 4=-233 5=1 6=46656
BinaryOp                 Add_123                  2 1 conv2d_556.tmp_0 relu_205.tmp_0_splitncnn_0 elementwise_add_85
ReLU                     Relu_207                 1 1 elementwise_add_85 relu_207.tmp_0
Split                    splitncnn_109            1 2 relu_207.tmp_0 relu_207.tmp_0_splitncnn_0 relu_207.tmp_0_splitncnn_1
Convolution              Conv_229                 1 1 relu_207.tmp_0_splitncnn_1 relu_208.tmp_0 0=72 1=3 4=-233 5=1 6=46656 9=1
Convolution              Conv_230                 1 1 relu_208.tmp_0 conv2d_558.tmp_0 0=72 1=3 4=-233 5=1 6=46656
BinaryOp                 Add_124                  2 1 conv2d_558.tmp_0 relu_207.tmp_0_splitncnn_0 elementwise_add_86
ReLU                     Relu_209                 1 1 elementwise_add_86 relu_209.tmp_0
Split                    splitncnn_110            1 2 relu_209.tmp_0 relu_209.tmp_0_splitncnn_0 relu_209.tmp_0_splitncnn_1
Convolution              Conv_231                 1 1 relu_209.tmp_0_splitncnn_1 relu_210.tmp_0 0=72 1=3 4=-233 5=1 6=46656 9=1
Convolution              Conv_232                 1 1 relu_210.tmp_0 conv2d_560.tmp_0 0=72 1=3 4=-233 5=1 6=46656
BinaryOp                 Add_125                  2 1 conv2d_560.tmp_0 relu_209.tmp_0_splitncnn_0 elementwise_add_87
ReLU                     Relu_211                 1 1 elementwise_add_87 relu_211.tmp_0
Split                    splitncnn_111            1 4 relu_211.tmp_0 relu_211.tmp_0_splitncnn_0 relu_211.tmp_0_splitncnn_1 relu_211.tmp_0_splitncnn_2 relu_211.tmp_0_splitncnn_3
Convolution              Conv_233                 1 1 relu_187.tmp_0_splitncnn_1 relu_212.tmp_0 0=144 1=3 4=-233 5=1 6=186624 9=1
Convolution              Conv_234                 1 1 relu_212.tmp_0 conv2d_562.tmp_0 0=144 1=3 4=-233 5=1 6=186624
BinaryOp                 Add_126                  2 1 conv2d_562.tmp_0 relu_187.tmp_0_splitncnn_0 elementwise_add_88
ReLU                     Relu_213                 1 1 elementwise_add_88 relu_213.tmp_0
Split                    splitncnn_112            1 2 relu_213.tmp_0 relu_213.tmp_0_splitncnn_0 relu_213.tmp_0_splitncnn_1
Convolution              Conv_235                 1 1 relu_213.tmp_0_splitncnn_1 relu_214.tmp_0 0=144 1=3 4=-233 5=1 6=186624 9=1
Convolution              Conv_236                 1 1 relu_214.tmp_0 conv2d_564.tmp_0 0=144 1=3 4=-233 5=1 6=186624
BinaryOp                 Add_127                  2 1 conv2d_564.tmp_0 relu_213.tmp_0_splitncnn_0 elementwise_add_89
ReLU                     Relu_215                 1 1 elementwise_add_89 relu_215.tmp_0
Split                    splitncnn_113            1 2 relu_215.tmp_0 relu_215.tmp_0_splitncnn_0 relu_215.tmp_0_splitncnn_1
Convolution              Conv_237                 1 1 relu_215.tmp_0_splitncnn_1 relu_216.tmp_0 0=144 1=3 4=-233 5=1 6=186624 9=1
Convolution              Conv_238                 1 1 relu_216.tmp_0 conv2d_566.tmp_0 0=144 1=3 4=-233 5=1 6=186624
BinaryOp                 Add_128                  2 1 conv2d_566.tmp_0 relu_215.tmp_0_splitncnn_0 elementwise_add_90
ReLU                     Relu_217                 1 1 elementwise_add_90 relu_217.tmp_0
Split                    splitncnn_114            1 2 relu_217.tmp_0 relu_217.tmp_0_splitncnn_0 relu_217.tmp_0_splitncnn_1
Convolution              Conv_239                 1 1 relu_217.tmp_0_splitncnn_1 relu_218.tmp_0 0=144 1=3 4=-233 5=1 6=186624 9=1
Convolution              Conv_240                 1 1 relu_218.tmp_0 conv2d_568.tmp_0 0=144 1=3 4=-233 5=1 6=186624
BinaryOp                 Add_129                  2 1 conv2d_568.tmp_0 relu_217.tmp_0_splitncnn_0 elementwise_add_91
ReLU                     Relu_219                 1 1 elementwise_add_91 relu_219.tmp_0
Split                    splitncnn_115            1 4 relu_219.tmp_0 relu_219.tmp_0_splitncnn_0 relu_219.tmp_0_splitncnn_1 relu_219.tmp_0_splitncnn_2 relu_219.tmp_0_splitncnn_3
Convolution              Conv_241                 1 1 relu_203.tmp_0_splitncnn_3 conv2d_569.tmp_0 0=18 1=1 4=-233 5=1 6=648
Interp                   Resize_19                1 1 conv2d_569.tmp_0 bilinear_interp_v2_19.tmp_0 0=2 3=128 4=128
BinaryOp                 Add_130                  2 1 relu_195.tmp_0_splitncnn_3 bilinear_interp_v2_19.tmp_0 tmp_38
Convolution              Conv_242                 1 1 relu_211.tmp_0_splitncnn_3 conv2d_570.tmp_0 0=18 1=1 4=-233 5=1 6=1296
Interp                   Resize_20                1 1 conv2d_570.tmp_0 bilinear_interp_v2_20.tmp_0 0=2 3=128 4=128
BinaryOp                 Add_131                  2 1 tmp_38 bilinear_interp_v2_20.tmp_0 tmp_39
Convolution              Conv_243                 1 1 relu_219.tmp_0_splitncnn_3 conv2d_571.tmp_0 0=18 1=1 4=-233 5=1 6=2592
Interp                   Resize_21                1 1 conv2d_571.tmp_0 bilinear_interp_v2_21.tmp_0 0=2 3=128 4=128
BinaryOp                 Add_132                  2 1 tmp_39 bilinear_interp_v2_21.tmp_0 tmp_40
ReLU                     Relu_220                 1 1 tmp_40 relu_220.tmp_0
Split                    splitncnn_116            1 2 relu_220.tmp_0 relu_220.tmp_0_splitncnn_0 relu_220.tmp_0_splitncnn_1
Convolution              Conv_244                 1 1 relu_195.tmp_0_splitncnn_2 conv2d_572.tmp_0 0=36 1=3 3=2 4=-233 5=1 6=5832
BinaryOp                 Add_133                  2 1 relu_203.tmp_0_splitncnn_2 conv2d_572.tmp_0 tmp_41
Convolution              Conv_245                 1 1 relu_211.tmp_0_splitncnn_2 conv2d_573.tmp_0 0=36 1=1 4=-233 5=1 6=2592
Interp                   Resize_22                1 1 conv2d_573.tmp_0 bilinear_interp_v2_22.tmp_0 0=2 3=64 4=64
BinaryOp                 Add_134                  2 1 tmp_41 bilinear_interp_v2_22.tmp_0 tmp_42
Convolution              Conv_246                 1 1 relu_219.tmp_0_splitncnn_2 conv2d_574.tmp_0 0=36 1=1 4=-233 5=1 6=5184
Interp                   Resize_23                1 1 conv2d_574.tmp_0 bilinear_interp_v2_23.tmp_0 0=2 3=64 4=64
BinaryOp                 Add_135                  2 1 tmp_42 bilinear_interp_v2_23.tmp_0 tmp_43
ReLU                     Relu_221                 1 1 tmp_43 relu_221.tmp_0
Split                    splitncnn_117            1 2 relu_221.tmp_0 relu_221.tmp_0_splitncnn_0 relu_221.tmp_0_splitncnn_1
Convolution              Conv_247                 1 1 relu_195.tmp_0_splitncnn_1 relu_222.tmp_0 0=18 1=3 3=2 4=-233 5=1 6=2916 9=1
Convolution              Conv_248                 1 1 relu_222.tmp_0 conv2d_576.tmp_0 0=72 1=3 3=2 4=-233 5=1 6=11664
BinaryOp                 Add_136                  2 1 relu_211.tmp_0_splitncnn_1 conv2d_576.tmp_0 tmp_44
Convolution              Conv_249                 1 1 relu_203.tmp_0_splitncnn_1 conv2d_577.tmp_0 0=72 1=3 3=2 4=-233 5=1 6=23328
BinaryOp                 Add_137                  2 1 tmp_44 conv2d_577.tmp_0 tmp_45
Convolution              Conv_250                 1 1 relu_219.tmp_0_splitncnn_1 conv2d_578.tmp_0 0=72 1=1 4=-233 5=1 6=10368
Interp                   Resize_24                1 1 conv2d_578.tmp_0 bilinear_interp_v2_24.tmp_0 0=2 3=32 4=32
BinaryOp                 Add_138                  2 1 tmp_45 bilinear_interp_v2_24.tmp_0 tmp_46
ReLU                     Relu_223                 1 1 tmp_46 relu_223.tmp_0
Split                    splitncnn_118            1 2 relu_223.tmp_0 relu_223.tmp_0_splitncnn_0 relu_223.tmp_0_splitncnn_1
Convolution              Conv_251                 1 1 relu_195.tmp_0_splitncnn_0 relu_224.tmp_0 0=18 1=3 3=2 4=-233 5=1 6=2916 9=1
Convolution              Conv_252                 1 1 relu_224.tmp_0 relu_225.tmp_0 0=18 1=3 3=2 4=-233 5=1 6=2916 9=1
Convolution              Conv_253                 1 1 relu_225.tmp_0 conv2d_581.tmp_0 0=144 1=3 3=2 4=-233 5=1 6=23328
BinaryOp                 Add_139                  2 1 relu_219.tmp_0_splitncnn_0 conv2d_581.tmp_0 tmp_47
Convolution              Conv_254                 1 1 relu_203.tmp_0_splitncnn_0 relu_226.tmp_0 0=36 1=3 3=2 4=-233 5=1 6=11664 9=1
Convolution              Conv_255                 1 1 relu_226.tmp_0 conv2d_583.tmp_0 0=144 1=3 3=2 4=-233 5=1 6=46656
BinaryOp                 Add_140                  2 1 tmp_47 conv2d_583.tmp_0 tmp_48
Convolution              Conv_256                 1 1 relu_211.tmp_0_splitncnn_0 conv2d_584.tmp_0 0=144 1=3 3=2 4=-233 5=1 6=93312
BinaryOp                 Add_141                  2 1 tmp_48 conv2d_584.tmp_0 tmp_49
ReLU                     Relu_227                 1 1 tmp_49 relu_227.tmp_0
Split                    splitncnn_119            1 2 relu_227.tmp_0 relu_227.tmp_0_splitncnn_0 relu_227.tmp_0_splitncnn_1
Convolution              Conv_257                 1 1 relu_220.tmp_0_splitncnn_1 relu_228.tmp_0 0=18 1=3 4=-233 5=1 6=2916 9=1
Convolution              Conv_258                 1 1 relu_228.tmp_0 conv2d_586.tmp_0 0=18 1=3 4=-233 5=1 6=2916
BinaryOp                 Add_142                  2 1 conv2d_586.tmp_0 relu_220.tmp_0_splitncnn_0 elementwise_add_92
ReLU                     Relu_229                 1 1 elementwise_add_92 relu_229.tmp_0
Split                    splitncnn_120            1 2 relu_229.tmp_0 relu_229.tmp_0_splitncnn_0 relu_229.tmp_0_splitncnn_1
Convolution              Conv_259                 1 1 relu_229.tmp_0_splitncnn_1 relu_230.tmp_0 0=18 1=3 4=-233 5=1 6=2916 9=1
Convolution              Conv_260                 1 1 relu_230.tmp_0 conv2d_588.tmp_0 0=18 1=3 4=-233 5=1 6=2916
BinaryOp                 Add_143                  2 1 conv2d_588.tmp_0 relu_229.tmp_0_splitncnn_0 elementwise_add_93
ReLU                     Relu_231                 1 1 elementwise_add_93 relu_231.tmp_0
Split                    splitncnn_121            1 2 relu_231.tmp_0 relu_231.tmp_0_splitncnn_0 relu_231.tmp_0_splitncnn_1
Convolution              Conv_261                 1 1 relu_231.tmp_0_splitncnn_1 relu_232.tmp_0 0=18 1=3 4=-233 5=1 6=2916 9=1
Convolution              Conv_262                 1 1 relu_232.tmp_0 conv2d_590.tmp_0 0=18 1=3 4=-233 5=1 6=2916
BinaryOp                 Add_144                  2 1 conv2d_590.tmp_0 relu_231.tmp_0_splitncnn_0 elementwise_add_94
ReLU                     Relu_233                 1 1 elementwise_add_94 relu_233.tmp_0
Split                    splitncnn_122            1 2 relu_233.tmp_0 relu_233.tmp_0_splitncnn_0 relu_233.tmp_0_splitncnn_1
Convolution              Conv_263                 1 1 relu_233.tmp_0_splitncnn_1 relu_234.tmp_0 0=18 1=3 4=-233 5=1 6=2916 9=1
Convolution              Conv_264                 1 1 relu_234.tmp_0 conv2d_592.tmp_0 0=18 1=3 4=-233 5=1 6=2916
BinaryOp                 Add_145                  2 1 conv2d_592.tmp_0 relu_233.tmp_0_splitncnn_0 elementwise_add_95
ReLU                     Relu_235                 1 1 elementwise_add_95 relu_235.tmp_0
Split                    splitncnn_123            1 2 relu_235.tmp_0 relu_235.tmp_0_splitncnn_0 relu_235.tmp_0_splitncnn_1
Convolution              Conv_265                 1 1 relu_221.tmp_0_splitncnn_1 relu_236.tmp_0 0=36 1=3 4=-233 5=1 6=11664 9=1
Convolution              Conv_266                 1 1 relu_236.tmp_0 conv2d_594.tmp_0 0=36 1=3 4=-233 5=1 6=11664
BinaryOp                 Add_146                  2 1 conv2d_594.tmp_0 relu_221.tmp_0_splitncnn_0 elementwise_add_96
ReLU                     Relu_237                 1 1 elementwise_add_96 relu_237.tmp_0
Split                    splitncnn_124            1 2 relu_237.tmp_0 relu_237.tmp_0_splitncnn_0 relu_237.tmp_0_splitncnn_1
Convolution              Conv_267                 1 1 relu_237.tmp_0_splitncnn_1 relu_238.tmp_0 0=36 1=3 4=-233 5=1 6=11664 9=1
Convolution              Conv_268                 1 1 relu_238.tmp_0 conv2d_596.tmp_0 0=36 1=3 4=-233 5=1 6=11664
BinaryOp                 Add_147                  2 1 conv2d_596.tmp_0 relu_237.tmp_0_splitncnn_0 elementwise_add_97
ReLU                     Relu_239                 1 1 elementwise_add_97 relu_239.tmp_0
Split                    splitncnn_125            1 2 relu_239.tmp_0 relu_239.tmp_0_splitncnn_0 relu_239.tmp_0_splitncnn_1
Convolution              Conv_269                 1 1 relu_239.tmp_0_splitncnn_1 relu_240.tmp_0 0=36 1=3 4=-233 5=1 6=11664 9=1
Convolution              Conv_270                 1 1 relu_240.tmp_0 conv2d_598.tmp_0 0=36 1=3 4=-233 5=1 6=11664
BinaryOp                 Add_148                  2 1 conv2d_598.tmp_0 relu_239.tmp_0_splitncnn_0 elementwise_add_98
ReLU                     Relu_241                 1 1 elementwise_add_98 relu_241.tmp_0
Split                    splitncnn_126            1 2 relu_241.tmp_0 relu_241.tmp_0_splitncnn_0 relu_241.tmp_0_splitncnn_1
Convolution              Conv_271                 1 1 relu_241.tmp_0_splitncnn_1 relu_242.tmp_0 0=36 1=3 4=-233 5=1 6=11664 9=1
Convolution              Conv_272                 1 1 relu_242.tmp_0 conv2d_600.tmp_0 0=36 1=3 4=-233 5=1 6=11664
BinaryOp                 Add_149                  2 1 conv2d_600.tmp_0 relu_241.tmp_0_splitncnn_0 elementwise_add_99
ReLU                     Relu_243                 1 1 elementwise_add_99 relu_243.tmp_0
Split                    splitncnn_127            1 2 relu_243.tmp_0 relu_243.tmp_0_splitncnn_0 relu_243.tmp_0_splitncnn_1
Convolution              Conv_273                 1 1 relu_223.tmp_0_splitncnn_1 relu_244.tmp_0 0=72 1=3 4=-233 5=1 6=46656 9=1
Convolution              Conv_274                 1 1 relu_244.tmp_0 conv2d_602.tmp_0 0=72 1=3 4=-233 5=1 6=46656
BinaryOp                 Add_150                  2 1 conv2d_602.tmp_0 relu_223.tmp_0_splitncnn_0 elementwise_add_100
ReLU                     Relu_245                 1 1 elementwise_add_100 relu_245.tmp_0
Split                    splitncnn_128            1 2 relu_245.tmp_0 relu_245.tmp_0_splitncnn_0 relu_245.tmp_0_splitncnn_1
Convolution              Conv_275                 1 1 relu_245.tmp_0_splitncnn_1 relu_246.tmp_0 0=72 1=3 4=-233 5=1 6=46656 9=1
Convolution              Conv_276                 1 1 relu_246.tmp_0 conv2d_604.tmp_0 0=72 1=3 4=-233 5=1 6=46656
BinaryOp                 Add_151                  2 1 conv2d_604.tmp_0 relu_245.tmp_0_splitncnn_0 elementwise_add_101
ReLU                     Relu_247                 1 1 elementwise_add_101 relu_247.tmp_0
Split                    splitncnn_129            1 2 relu_247.tmp_0 relu_247.tmp_0_splitncnn_0 relu_247.tmp_0_splitncnn_1
Convolution              Conv_277                 1 1 relu_247.tmp_0_splitncnn_1 relu_248.tmp_0 0=72 1=3 4=-233 5=1 6=46656 9=1
Convolution              Conv_278                 1 1 relu_248.tmp_0 conv2d_606.tmp_0 0=72 1=3 4=-233 5=1 6=46656
BinaryOp                 Add_152                  2 1 conv2d_606.tmp_0 relu_247.tmp_0_splitncnn_0 elementwise_add_102
ReLU                     Relu_249                 1 1 elementwise_add_102 relu_249.tmp_0
Split                    splitncnn_130            1 2 relu_249.tmp_0 relu_249.tmp_0_splitncnn_0 relu_249.tmp_0_splitncnn_1
Convolution              Conv_279                 1 1 relu_249.tmp_0_splitncnn_1 relu_250.tmp_0 0=72 1=3 4=-233 5=1 6=46656 9=1
Convolution              Conv_280                 1 1 relu_250.tmp_0 conv2d_608.tmp_0 0=72 1=3 4=-233 5=1 6=46656
BinaryOp                 Add_153                  2 1 conv2d_608.tmp_0 relu_249.tmp_0_splitncnn_0 elementwise_add_103
ReLU                     Relu_251                 1 1 elementwise_add_103 relu_251.tmp_0
Split                    splitncnn_131            1 2 relu_251.tmp_0 relu_251.tmp_0_splitncnn_0 relu_251.tmp_0_splitncnn_1
Convolution              Conv_281                 1 1 relu_227.tmp_0_splitncnn_1 relu_252.tmp_0 0=144 1=3 4=-233 5=1 6=186624 9=1
Convolution              Conv_282                 1 1 relu_252.tmp_0 conv2d_610.tmp_0 0=144 1=3 4=-233 5=1 6=186624
BinaryOp                 Add_154                  2 1 conv2d_610.tmp_0 relu_227.tmp_0_splitncnn_0 elementwise_add_104
ReLU                     Relu_253                 1 1 elementwise_add_104 relu_253.tmp_0
Split                    splitncnn_132            1 2 relu_253.tmp_0 relu_253.tmp_0_splitncnn_0 relu_253.tmp_0_splitncnn_1
Convolution              Conv_283                 1 1 relu_253.tmp_0_splitncnn_1 relu_254.tmp_0 0=144 1=3 4=-233 5=1 6=186624 9=1
Convolution              Conv_284                 1 1 relu_254.tmp_0 conv2d_612.tmp_0 0=144 1=3 4=-233 5=1 6=186624
BinaryOp                 Add_155                  2 1 conv2d_612.tmp_0 relu_253.tmp_0_splitncnn_0 elementwise_add_105
ReLU                     Relu_255                 1 1 elementwise_add_105 relu_255.tmp_0
Split                    splitncnn_133            1 2 relu_255.tmp_0 relu_255.tmp_0_splitncnn_0 relu_255.tmp_0_splitncnn_1
Convolution              Conv_285                 1 1 relu_255.tmp_0_splitncnn_1 relu_256.tmp_0 0=144 1=3 4=-233 5=1 6=186624 9=1
Convolution              Conv_286                 1 1 relu_256.tmp_0 conv2d_614.tmp_0 0=144 1=3 4=-233 5=1 6=186624
BinaryOp                 Add_156                  2 1 conv2d_614.tmp_0 relu_255.tmp_0_splitncnn_0 elementwise_add_106
ReLU                     Relu_257                 1 1 elementwise_add_106 relu_257.tmp_0
Split                    splitncnn_134            1 2 relu_257.tmp_0 relu_257.tmp_0_splitncnn_0 relu_257.tmp_0_splitncnn_1
Convolution              Conv_287                 1 1 relu_257.tmp_0_splitncnn_1 relu_258.tmp_0 0=144 1=3 4=-233 5=1 6=186624 9=1
Convolution              Conv_288                 1 1 relu_258.tmp_0 conv2d_616.tmp_0 0=144 1=3 4=-233 5=1 6=186624
BinaryOp                 Add_157                  2 1 conv2d_616.tmp_0 relu_257.tmp_0_splitncnn_0 elementwise_add_107
ReLU                     Relu_259                 1 1 elementwise_add_107 relu_259.tmp_0
Split                    splitncnn_135            1 2 relu_259.tmp_0 relu_259.tmp_0_splitncnn_0 relu_259.tmp_0_splitncnn_1
Convolution              Conv_289                 1 1 relu_243.tmp_0_splitncnn_1 conv2d_617.tmp_0 0=18 1=1 4=-233 5=1 6=648
Interp                   Resize_25                1 1 conv2d_617.tmp_0 bilinear_interp_v2_25.tmp_0 0=2 3=128 4=128
BinaryOp                 Add_158                  2 1 relu_235.tmp_0_splitncnn_1 bilinear_interp_v2_25.tmp_0 tmp_50
Convolution              Conv_290                 1 1 relu_251.tmp_0_splitncnn_1 conv2d_618.tmp_0 0=18 1=1 4=-233 5=1 6=1296
Interp                   Resize_26                1 1 conv2d_618.tmp_0 bilinear_interp_v2_26.tmp_0 0=2 3=128 4=128
BinaryOp                 Add_159                  2 1 tmp_50 bilinear_interp_v2_26.tmp_0 tmp_51
Convolution              Conv_291                 1 1 relu_259.tmp_0_splitncnn_1 conv2d_619.tmp_0 0=18 1=1 4=-233 5=1 6=2592
Interp                   Resize_27                1 1 conv2d_619.tmp_0 bilinear_interp_v2_27.tmp_0 0=2 3=128 4=128
BinaryOp                 Add_160                  2 1 tmp_51 bilinear_interp_v2_27.tmp_0 tmp_52
ReLU                     Relu_260                 1 1 tmp_52 relu_260.tmp_0
Convolution              Conv_292                 1 1 relu_235.tmp_0_splitncnn_0 relu_264.tmp_0 0=18 1=3 3=2 4=-233 5=1 6=2916 9=1
Convolution              Conv_293                 1 1 relu_264.tmp_0 relu_265.tmp_0 0=18 1=3 3=2 4=-233 5=1 6=2916 9=1
Convolution              Conv_294                 1 1 relu_265.tmp_0 conv2d_629.tmp_0 0=144 1=3 3=2 4=-233 5=1 6=23328
BinaryOp                 Add_161                  2 1 relu_259.tmp_0_splitncnn_0 conv2d_629.tmp_0 tmp_59
Convolution              Conv_295                 1 1 relu_243.tmp_0_splitncnn_0 relu_266.tmp_0 0=36 1=3 3=2 4=-233 5=1 6=11664 9=1
Convolution              Conv_296                 1 1 relu_266.tmp_0 conv2d_631.tmp_0 0=144 1=3 3=2 4=-233 5=1 6=46656
BinaryOp                 Add_162                  2 1 tmp_59 conv2d_631.tmp_0 tmp_60
Convolution              Conv_297                 1 1 relu_251.tmp_0_splitncnn_0 conv2d_632.tmp_0 0=144 1=3 3=2 4=-233 5=1 6=93312
BinaryOp                 Add_163                  2 1 tmp_60 conv2d_632.tmp_0 tmp_61
ReLU                     Relu_264                 1 1 tmp_61 relu_267.tmp_0
Split                    splitncnn_136            1 2 relu_267.tmp_0 relu_267.tmp_0_splitncnn_0 relu_267.tmp_0_splitncnn_1
Pooling                  GlobalAveragePool_0      1 1 relu_267.tmp_0_splitncnn_1 pool2d_0.tmp_0 0=1 4=1
InnerProduct             Conv_298                 1 1 pool2d_0.tmp_0 relu_268.tmp_0 0=36 2=5184 9=1
InnerProduct             Conv_299                 1 1 relu_268.tmp_0 sigmoid_1.tmp_0 0=144 2=5184 9=4
BinaryOp                 Mul_0                    2 1 sigmoid_1.tmp_0 relu_267.tmp_0_splitncnn_0 tmp_62 0=2
Interp                   Resize_28                1 1 tmp_62 bilinear_interp_v2_31.tmp_0 0=2 1=2.000000e+00 2=2.000000e+00
Convolution              Conv_300                 1 1 bilinear_interp_v2_31.tmp_0 conv2d_635.tmp_0 0=72 1=5 4=2 5=1 6=259200
Split                    splitncnn_137            1 2 conv2d_635.tmp_0 conv2d_635.tmp_0_splitncnn_0 conv2d_635.tmp_0_splitncnn_1
Crop                     Slice_44                 1 1 conv2d_635.tmp_0_splitncnn_1 conv2d_635.tmp_1_slice_0 -23309=1,0 -23310=1,36 -23311=1,0
BatchNorm                BatchNormalization_298   1 1 conv2d_635.tmp_1_slice_0 batch_norm_305.tmp_2 0=36
Crop                     Slice_45                 1 1 conv2d_635.tmp_0_splitncnn_0 conv2d_635.tmp_1_slice_1 -23309=1,36 -23310=1,72 -23311=1,0
InstanceNorm             InstanceNormalization_0  1 1 conv2d_635.tmp_1_slice_1 instance_norm_0.tmp_2 0=36 1=1.000000e-05
Concat                   Concat_28                2 1 batch_norm_305.tmp_2 instance_norm_0.tmp_2 concat_0.tmp_0
ReLU                     Relu_266                 1 1 concat_0.tmp_0 relu_269.tmp_0
Interp                   Resize_29                1 1 relu_269.tmp_0 bilinear_interp_v2_32.tmp_0 0=2 1=2.000000e+00 2=2.000000e+00
Convolution              Conv_301                 1 1 bilinear_interp_v2_32.tmp_0 conv2d_636.tmp_0 0=36 1=5 4=2 5=1 6=64800
Split                    splitncnn_138            1 2 conv2d_636.tmp_0 conv2d_636.tmp_0_splitncnn_0 conv2d_636.tmp_0_splitncnn_1
Crop                     Slice_46                 1 1 conv2d_636.tmp_0_splitncnn_1 conv2d_636.tmp_1_slice_0 -23309=1,0 -23310=1,18 -23311=1,0
BatchNorm                BatchNormalization_299   1 1 conv2d_636.tmp_1_slice_0 batch_norm_306.tmp_2 0=18
Crop                     Slice_47                 1 1 conv2d_636.tmp_0_splitncnn_0 conv2d_636.tmp_1_slice_1 -23309=1,18 -23310=1,36 -23311=1,0
InstanceNorm             InstanceNormalization_1  1 1 conv2d_636.tmp_1_slice_1 instance_norm_1.tmp_2 0=18 1=1.000000e-05
Concat                   Concat_29                2 1 batch_norm_306.tmp_2 instance_norm_1.tmp_2 concat_1.tmp_0
ReLU                     Relu_267                 1 1 concat_1.tmp_0 relu_270.tmp_0
Split                    splitncnn_139            1 2 relu_270.tmp_0 relu_270.tmp_0_splitncnn_0 relu_270.tmp_0_splitncnn_1
Interp                   Resize_30                1 1 img_splitncnn_2 bilinear_interp_v2_33.tmp_0 0=2 1=5.000000e-01 2=5.000000e-01
Interp                   Resize_31                1 1 img_splitncnn_1 bilinear_interp_v2_34.tmp_0 0=2 1=2.500000e-01 2=2.500000e-01
Convolution              Conv_302                 1 1 relu_0.tmp_0_splitncnn_0 conv2d_637.tmp_0 0=32 1=1 5=1 6=2048
Split                    splitncnn_140            1 2 conv2d_637.tmp_0 conv2d_637.tmp_0_splitncnn_0 conv2d_637.tmp_0_splitncnn_1
Crop                     Slice_48                 1 1 conv2d_637.tmp_0_splitncnn_1 conv2d_637.tmp_1_slice_0 -23309=1,0 -23310=1,16 -23311=1,0
BatchNorm                BatchNormalization_300   1 1 conv2d_637.tmp_1_slice_0 batch_norm_307.tmp_2 0=16
Crop                     Slice_49                 1 1 conv2d_637.tmp_0_splitncnn_0 conv2d_637.tmp_1_slice_1 -23309=1,16 -23310=1,32 -23311=1,0
InstanceNorm             InstanceNormalization_2  1 1 conv2d_637.tmp_1_slice_1 instance_norm_2.tmp_2 0=16 1=1.000000e-05
Concat                   Concat_30                2 1 batch_norm_307.tmp_2 instance_norm_2.tmp_2 concat_2.tmp_0
ReLU                     Relu_268                 1 1 concat_2.tmp_0 relu_271.tmp_0
Split                    splitncnn_141            1 2 relu_271.tmp_0 relu_271.tmp_0_splitncnn_0 relu_271.tmp_0_splitncnn_1
Concat                   Concat_31                2 1 bilinear_interp_v2_33.tmp_0 relu_271.tmp_0_splitncnn_1 concat_3.tmp_0
Convolution              Conv_303                 1 1 concat_3.tmp_0 conv2d_638.tmp_0 0=32 1=3 3=2 4=1 5=1 6=10080
Split                    splitncnn_142            1 2 conv2d_638.tmp_0 conv2d_638.tmp_0_splitncnn_0 conv2d_638.tmp_0_splitncnn_1
Crop                     Slice_50                 1 1 conv2d_638.tmp_0_splitncnn_1 conv2d_638.tmp_1_slice_0 -23309=1,0 -23310=1,16 -23311=1,0
BatchNorm                BatchNormalization_301   1 1 conv2d_638.tmp_1_slice_0 batch_norm_308.tmp_2 0=16
Crop                     Slice_51                 1 1 conv2d_638.tmp_0_splitncnn_0 conv2d_638.tmp_1_slice_1 -23309=1,16 -23310=1,32 -23311=1,0
InstanceNorm             InstanceNormalization_3  1 1 conv2d_638.tmp_1_slice_1 instance_norm_3.tmp_2 0=16 1=1.000000e-05
Concat                   Concat_32                2 1 batch_norm_308.tmp_2 instance_norm_3.tmp_2 concat_4.tmp_0
ReLU                     Relu_269                 1 1 concat_4.tmp_0 relu_272.tmp_0
Convolution              Conv_304                 1 1 relu_260.tmp_0 conv2d_639.tmp_0 0=32 1=1 5=1 6=576
Split                    splitncnn_143            1 2 conv2d_639.tmp_0 conv2d_639.tmp_0_splitncnn_0 conv2d_639.tmp_0_splitncnn_1
Crop                     Slice_52                 1 1 conv2d_639.tmp_0_splitncnn_1 conv2d_639.tmp_1_slice_0 -23309=1,0 -23310=1,16 -23311=1,0
BatchNorm                BatchNormalization_302   1 1 conv2d_639.tmp_1_slice_0 batch_norm_309.tmp_2 0=16
Crop                     Slice_53                 1 1 conv2d_639.tmp_0_splitncnn_0 conv2d_639.tmp_1_slice_1 -23309=1,16 -23310=1,32 -23311=1,0
InstanceNorm             InstanceNormalization_4  1 1 conv2d_639.tmp_1_slice_1 instance_norm_4.tmp_2 0=16 1=1.000000e-05
Concat                   Concat_33                2 1 batch_norm_309.tmp_2 instance_norm_4.tmp_2 concat_5.tmp_0
ReLU                     Relu_270                 1 1 concat_5.tmp_0 relu_273.tmp_0
Concat                   Concat_34                2 1 relu_272.tmp_0 relu_273.tmp_0 concat_6.tmp_0
Convolution              Conv_305                 1 1 concat_6.tmp_0 conv2d_640.tmp_0 0=64 1=3 4=1 5=1 6=36864
Split                    splitncnn_144            1 2 conv2d_640.tmp_0 conv2d_640.tmp_0_splitncnn_0 conv2d_640.tmp_0_splitncnn_1
Crop                     Slice_54                 1 1 conv2d_640.tmp_0_splitncnn_1 conv2d_640.tmp_1_slice_0 -23309=1,0 -23310=1,32 -23311=1,0
BatchNorm                BatchNormalization_303   1 1 conv2d_640.tmp_1_slice_0 batch_norm_310.tmp_2 0=32
Crop                     Slice_55                 1 1 conv2d_640.tmp_0_splitncnn_0 conv2d_640.tmp_1_slice_1 -23309=1,32 -23310=1,64 -23311=1,0
InstanceNorm             InstanceNormalization_5  1 1 conv2d_640.tmp_1_slice_1 instance_norm_5.tmp_2 0=32 1=1.000000e-05
Concat                   Concat_35                2 1 batch_norm_310.tmp_2 instance_norm_5.tmp_2 concat_7.tmp_0
ReLU                     Relu_271                 1 1 concat_7.tmp_0 relu_274.tmp_0
Interp                   Resize_32                1 1 relu_270.tmp_0_splitncnn_1 bilinear_interp_v2_35.tmp_0 0=2 1=2.000000e+00 2=2.000000e+00
Concat                   Concat_36                3 1 relu_274.tmp_0 bilinear_interp_v2_35.tmp_0 bilinear_interp_v2_34.tmp_0 concat_8.tmp_0
Convolution              Conv_306                 1 1 concat_8.tmp_0 conv2d_641.tmp_0 0=64 1=3 4=1 5=1 6=59328
Split                    splitncnn_145            1 2 conv2d_641.tmp_0 conv2d_641.tmp_0_splitncnn_0 conv2d_641.tmp_0_splitncnn_1
Crop                     Slice_56                 1 1 conv2d_641.tmp_0_splitncnn_1 conv2d_641.tmp_1_slice_0 -23309=1,0 -23310=1,32 -23311=1,0
BatchNorm                BatchNormalization_304   1 1 conv2d_641.tmp_1_slice_0 batch_norm_311.tmp_2 0=32
Crop                     Slice_57                 1 1 conv2d_641.tmp_0_splitncnn_0 conv2d_641.tmp_1_slice_1 -23309=1,32 -23310=1,64 -23311=1,0
InstanceNorm             InstanceNormalization_6  1 1 conv2d_641.tmp_1_slice_1 instance_norm_6.tmp_2 0=32 1=1.000000e-05
Concat                   Concat_37                2 1 batch_norm_311.tmp_2 instance_norm_6.tmp_2 concat_9.tmp_0
ReLU                     Relu_272                 1 1 concat_9.tmp_0 relu_275.tmp_0
Convolution              Conv_307                 1 1 relu_275.tmp_0 conv2d_642.tmp_0 0=64 1=3 4=1 5=1 6=36864
Split                    splitncnn_146            1 2 conv2d_642.tmp_0 conv2d_642.tmp_0_splitncnn_0 conv2d_642.tmp_0_splitncnn_1
Crop                     Slice_58                 1 1 conv2d_642.tmp_0_splitncnn_1 conv2d_642.tmp_1_slice_0 -23309=1,0 -23310=1,32 -23311=1,0
BatchNorm                BatchNormalization_305   1 1 conv2d_642.tmp_1_slice_0 batch_norm_312.tmp_2 0=32
Crop                     Slice_59                 1 1 conv2d_642.tmp_0_splitncnn_0 conv2d_642.tmp_1_slice_1 -23309=1,32 -23310=1,64 -23311=1,0
InstanceNorm             InstanceNormalization_7  1 1 conv2d_642.tmp_1_slice_1 instance_norm_7.tmp_2 0=32 1=1.000000e-05
Concat                   Concat_38                2 1 batch_norm_312.tmp_2 instance_norm_7.tmp_2 concat_10.tmp_0
ReLU                     Relu_273                 1 1 concat_10.tmp_0 relu_276.tmp_0
Convolution              Conv_308                 1 1 relu_276.tmp_0 conv2d_643.tmp_0 0=32 1=3 4=1 5=1 6=18432
Split                    splitncnn_147            1 2 conv2d_643.tmp_0 conv2d_643.tmp_0_splitncnn_0 conv2d_643.tmp_0_splitncnn_1
Crop                     Slice_60                 1 1 conv2d_643.tmp_0_splitncnn_1 conv2d_643.tmp_1_slice_0 -23309=1,0 -23310=1,16 -23311=1,0
BatchNorm                BatchNormalization_306   1 1 conv2d_643.tmp_1_slice_0 batch_norm_313.tmp_2 0=16
Crop                     Slice_61                 1 1 conv2d_643.tmp_0_splitncnn_0 conv2d_643.tmp_1_slice_1 -23309=1,16 -23310=1,32 -23311=1,0
InstanceNorm             InstanceNormalization_8  1 1 conv2d_643.tmp_1_slice_1 instance_norm_8.tmp_2 0=16 1=1.000000e-05
Concat                   Concat_39                2 1 batch_norm_313.tmp_2 instance_norm_8.tmp_2 concat_11.tmp_0
ReLU                     Relu_274                 1 1 concat_11.tmp_0 relu_277.tmp_0
Interp                   Resize_33                1 1 relu_277.tmp_0 bilinear_interp_v2_36.tmp_0 0=2 1=2.000000e+00 2=2.000000e+00
Concat                   Concat_40                2 1 bilinear_interp_v2_36.tmp_0 relu_271.tmp_0_splitncnn_0 concat_12.tmp_0
Convolution              Conv_309                 1 1 concat_12.tmp_0 conv2d_644.tmp_0 0=64 1=3 4=1 5=1 6=36864
Split                    splitncnn_148            1 2 conv2d_644.tmp_0 conv2d_644.tmp_0_splitncnn_0 conv2d_644.tmp_0_splitncnn_1
Crop                     Slice_62                 1 1 conv2d_644.tmp_0_splitncnn_1 conv2d_644.tmp_1_slice_0 -23309=1,0 -23310=1,32 -23311=1,0
BatchNorm                BatchNormalization_307   1 1 conv2d_644.tmp_1_slice_0 batch_norm_314.tmp_2 0=32
Crop                     Slice_63                 1 1 conv2d_644.tmp_0_splitncnn_0 conv2d_644.tmp_1_slice_1 -23309=1,32 -23310=1,64 -23311=1,0
InstanceNorm             InstanceNormalization_9  1 1 conv2d_644.tmp_1_slice_1 instance_norm_9.tmp_2 0=32 1=1.000000e-05
Concat                   Concat_41                2 1 batch_norm_314.tmp_2 instance_norm_9.tmp_2 concat_13.tmp_0
ReLU                     Relu_275                 1 1 concat_13.tmp_0 relu_278.tmp_0
Convolution              Conv_310                 1 1 relu_278.tmp_0 conv2d_645.tmp_0 0=32 1=3 4=1 5=1 6=18432
Split                    splitncnn_149            1 2 conv2d_645.tmp_0 conv2d_645.tmp_0_splitncnn_0 conv2d_645.tmp_0_splitncnn_1
Crop                     Slice_64                 1 1 conv2d_645.tmp_0_splitncnn_1 conv2d_645.tmp_1_slice_0 -23309=1,0 -23310=1,16 -23311=1,0
BatchNorm                BatchNormalization_308   1 1 conv2d_645.tmp_1_slice_0 batch_norm_315.tmp_2 0=16
Crop                     Slice_65                 1 1 conv2d_645.tmp_0_splitncnn_0 conv2d_645.tmp_1_slice_1 -23309=1,16 -23310=1,32 -23311=1,0
InstanceNorm             InstanceNormalization_10 1 1 conv2d_645.tmp_1_slice_1 instance_norm_10.tmp_2 0=16 1=1.000000e-05
Concat                   Concat_42                2 1 batch_norm_315.tmp_2 instance_norm_10.tmp_2 concat_14.tmp_0
ReLU                     Relu_276                 1 1 concat_14.tmp_0 relu_279.tmp_0
Convolution              Conv_311                 1 1 relu_279.tmp_0 conv2d_646.tmp_0 0=32 1=3 4=1 5=1 6=9216
Split                    splitncnn_150            1 2 conv2d_646.tmp_0 conv2d_646.tmp_0_splitncnn_0 conv2d_646.tmp_0_splitncnn_1
Crop                     Slice_66                 1 1 conv2d_646.tmp_0_splitncnn_1 conv2d_646.tmp_1_slice_0 -23309=1,0 -23310=1,16 -23311=1,0
BatchNorm                BatchNormalization_309   1 1 conv2d_646.tmp_1_slice_0 batch_norm_316.tmp_2 0=16
Crop                     Slice_67                 1 1 conv2d_646.tmp_0_splitncnn_0 conv2d_646.tmp_1_slice_1 -23309=1,16 -23310=1,32 -23311=1,0
InstanceNorm             InstanceNormalization_11 1 1 conv2d_646.tmp_1_slice_1 instance_norm_11.tmp_2 0=16 1=1.000000e-05
Concat                   Concat_43                2 1 batch_norm_316.tmp_2 instance_norm_11.tmp_2 concat_15.tmp_0
ReLU                     Relu_277                 1 1 concat_15.tmp_0 relu_280.tmp_0
Convolution              Conv_312                 1 1 relu_280.tmp_0 conv2d_647.tmp_0 0=32 1=3 4=1 5=1 6=9216
Split                    splitncnn_151            1 2 conv2d_647.tmp_0 conv2d_647.tmp_0_splitncnn_0 conv2d_647.tmp_0_splitncnn_1
Crop                     Slice_68                 1 1 conv2d_647.tmp_0_splitncnn_1 conv2d_647.tmp_1_slice_0 -23309=1,0 -23310=1,16 -23311=1,0
BatchNorm                BatchNormalization_310   1 1 conv2d_647.tmp_1_slice_0 batch_norm_317.tmp_2 0=16
Crop                     Slice_69                 1 1 conv2d_647.tmp_0_splitncnn_0 conv2d_647.tmp_1_slice_1 -23309=1,16 -23310=1,32 -23311=1,0
InstanceNorm             InstanceNormalization_12 1 1 conv2d_647.tmp_1_slice_1 instance_norm_12.tmp_2 0=16 1=1.000000e-05
Concat                   Concat_44                2 1 batch_norm_317.tmp_2 instance_norm_12.tmp_2 concat_16.tmp_0
ReLU                     Relu_278                 1 1 concat_16.tmp_0 relu_281.tmp_0
Interp                   Resize_34                1 1 relu_270.tmp_0_splitncnn_0 bilinear_interp_v2_37.tmp_0 0=2 1=2.000000e+00 2=2.000000e+00
Convolution              Conv_313                 1 1 bilinear_interp_v2_37.tmp_0 conv2d_648.tmp_0 0=32 1=5 4=2 5=1 6=28800
Split                    splitncnn_152            1 2 conv2d_648.tmp_0 conv2d_648.tmp_0_splitncnn_0 conv2d_648.tmp_0_splitncnn_1
Crop                     Slice_70                 1 1 conv2d_648.tmp_0_splitncnn_1 conv2d_648.tmp_1_slice_0 -23309=1,0 -23310=1,16 -23311=1,0
BatchNorm                BatchNormalization_311   1 1 conv2d_648.tmp_1_slice_0 batch_norm_318.tmp_2 0=16
Crop                     Slice_71                 1 1 conv2d_648.tmp_0_splitncnn_0 conv2d_648.tmp_1_slice_1 -23309=1,16 -23310=1,32 -23311=1,0
InstanceNorm             InstanceNormalization_13 1 1 conv2d_648.tmp_1_slice_1 instance_norm_13.tmp_2 0=16 1=1.000000e-05
Concat                   Concat_45                2 1 batch_norm_318.tmp_2 instance_norm_13.tmp_2 concat_17.tmp_0
ReLU                     Relu_279                 1 1 concat_17.tmp_0 relu_282.tmp_0
Interp                   Resize_35                1 1 relu_282.tmp_0 bilinear_interp_v2_38.tmp_0 0=2 1=2.000000e+00 2=2.000000e+00
Concat                   Concat_46                2 1 bilinear_interp_v2_38.tmp_0 relu_281.tmp_0 concat_18.tmp_0
Convolution              Conv_314                 1 1 concat_18.tmp_0 conv2d_649.tmp_0 0=32 1=3 4=1 5=1 6=18432
Split                    splitncnn_153            1 2 conv2d_649.tmp_0 conv2d_649.tmp_0_splitncnn_0 conv2d_649.tmp_0_splitncnn_1
Crop                     Slice_72                 1 1 conv2d_649.tmp_0_splitncnn_1 conv2d_649.tmp_1_slice_0 -23309=1,0 -23310=1,16 -23311=1,0
BatchNorm                BatchNormalization_312   1 1 conv2d_649.tmp_1_slice_0 batch_norm_319.tmp_2 0=16
Crop                     Slice_73                 1 1 conv2d_649.tmp_0_splitncnn_0 conv2d_649.tmp_1_slice_1 -23309=1,16 -23310=1,32 -23311=1,0
InstanceNorm             InstanceNormalization_14 1 1 conv2d_649.tmp_1_slice_1 instance_norm_14.tmp_2 0=16 1=1.000000e-05
Concat                   Concat_47                2 1 batch_norm_319.tmp_2 instance_norm_14.tmp_2 concat_19.tmp_0
ReLU                     Relu_280                 1 1 concat_19.tmp_0 relu_283.tmp_0
Interp                   Resize_36                1 1 relu_283.tmp_0 bilinear_interp_v2_39.tmp_0 0=2 1=2.000000e+00 2=2.000000e+00
Concat                   Concat_48                2 1 bilinear_interp_v2_39.tmp_0 img_splitncnn_0 concat_20.tmp_0
Convolution              Conv_315                 1 1 concat_20.tmp_0 conv2d_650.tmp_0 0=16 1=3 4=1 5=1 6=5040
Split                    splitncnn_154            1 2 conv2d_650.tmp_0 conv2d_650.tmp_0_splitncnn_0 conv2d_650.tmp_0_splitncnn_1
Crop                     Slice_74                 1 1 conv2d_650.tmp_0_splitncnn_1 conv2d_650.tmp_1_slice_0 -23309=1,0 -23310=1,8 -23311=1,0
BatchNorm                BatchNormalization_313   1 1 conv2d_650.tmp_1_slice_0 batch_norm_320.tmp_2 0=8
Crop                     Slice_75                 1 1 conv2d_650.tmp_0_splitncnn_0 conv2d_650.tmp_1_slice_1 -23309=1,8 -23310=1,16 -23311=1,0
InstanceNorm             InstanceNormalization_15 1 1 conv2d_650.tmp_1_slice_1 instance_norm_15.tmp_2 0=8 1=1.000000e-05
Concat                   Concat_49                2 1 batch_norm_320.tmp_2 instance_norm_15.tmp_2 concat_21.tmp_0
ReLU                     Relu_281                 1 1 concat_21.tmp_0 relu_284.tmp_0
Convolution              Conv_316                 1 1 relu_284.tmp_0 output 0=1 1=1 5=1 6=16 9=4
